assignments/5/RNN_best_model_1.pth (torch, 54454 bytes, 9 tensors)

rnn.weight_ih_l0 f4 [64, 1]
000000 28 36 82 be ca 98 fc 3e 59 f0 03 3f b2 3a cc 3f
       -0.25431943 0.4933532 0.51538616 1.5955412
000010 09 23 e4 be f9 91 12 3f 2c a6 49 3e 75 b5 c0 bf
       -0.4455798 0.57253987 0.19692296 -1.5055376
000020 84 7d c3 3e ae ca 63 3f 28 ab bb be 16 36 36 3f
       0.38181698 0.8898114 -0.3665402 0.7117628
000030 3f 00 ea be 38 a6 f9 3e c5 12 cc be a3 cd 4f bf
       -0.45703313 0.48759627 -0.3985807 -0.8117315
000040 47 26 56 bc 15 fd ba be 73 60 0a bf 16 1a ec be
       -0.0130706495 -0.3652121 -0.5405342 -0.46113652
000050 e6 72 8f bd 8d 0d cc be b5 2f c2 3d 00 bd f7 be
       -0.07004337 -0.39854088 0.09481756 -0.48386383
000060 e6 67 6e 3f 3b 5c 36 bf a2 4c 77 3e 6b b9 a5 be
       0.93127286 -0.7123448 0.24150327 -0.32368025
000070 67 e4 f8 3e 10 16 0f 3e cf c1 71 3c bb 7b 14 3f
       0.48611757 0.1397326 0.01475568 0.580013
000080 83 9e fd 3e 32 a8 47 3f 37 7a d8 3e db 96 1b bf
       0.49534997 0.7799102 0.42280743 -0.6077706
000090 09 5c 2b bf d4 a7 12 bf 96 91 6d bf 9e b5 39 bf
       -0.6693731 -0.57287335 -0.9280027 -0.7254275
0000a0 e7 c4 b7 be 7f 06 8e 3e d5 40 8b 3b 0b f4 c9 be
       -0.35892412 0.2773933 0.004249672 -0.39444003
0000b0 5b 6a f9 be 3b 18 a5 be 5e 6f a8 3e 6f 8b 67 3f
       -0.48713955 -0.3224505 0.32897466 0.90447134
0000c0 26 e0 60 3d 18 95 45 3f 87 b7 89 3d e9 63 01 bf
       0.054901265 0.77180624 0.06724458 -0.50543076
0000d0 36 d7 e5 be 01 e1 f8 be c3 77 fc be 0a c6 7a be
       -0.44890755 -0.48609164 -0.4931012 -0.24489608
0000e0 bb d8 5c be ab e0 02 bf 6e b6 db be 60 aa 29 bf
       -0.21567051 -0.51124066 -0.4291262 -0.66275597
0000f0 24 4e fd 3d f0 19 15 3f ee cd ab bc 30 4f 69 bf
       0.1236842 0.582427 -0.020972218 -0.91136456

rnn.weight_hh_l0 f4 [64, 64]
000000 79 d0 52 3a cb 82 d1 bd 61 2b 5b 3d 26 e1 42 bd
       0.0008041929 -0.10230025 0.053508166 -0.047578
000010 c0 2b ed 3d 60 d4 7c bd ee 93 65 bd 7c 73 11 bd
       0.1158061 -0.061725974 -0.05604928 -0.035510525
000020 1f cc 91 3d 6b 36 1b bb 6a 24 f5 3d 79 fb 24 bd
       0.07119011 -0.0023683559 0.11969836 -0.040278886
000030 13 33 a1 3d ae 81 c4 3c 7a 61 1a be aa 60 b5 3d
       0.0787107 0.023987617 -0.15076247 0.08856328
000040 53 6b 7f bd 14 2c 99 3d 22 ef e0 3d e0 0b bf 3c
       -0.06235821 0.0747911 0.10983111 0.023321092
000050 56 c4 60 bd 1d 90 07 3d 8a 3f e5 bd 53 4d fe bc
       -0.05487474 0.03309642 -0.1119376 -0.03104273
000060 d6 86 b8 bd bd 0b 94 3b 9d 4a b0 3d 28 6a 66 3a
       -0.09010093 0.004518001 0.08607981 0.0008789622
000070 5a 3e 1d 3d c0 6b d9 3c 88 30 04 be 15 04 29 bd
       0.03838954 0.026540637 -0.12909138 -0.04126366
000080 11 18 1d bc b4 cc 8b bc 56 6c a5 ba eb e2 20 be
       -0.009588257 -0.017065383 -0.0012620788 -0.15711562
000090 67 ba e8 bb 96 81 08 be dd 29 27 be cd 64 eb 3c
       -0.007102299 -0.13330683 -0.16324563 0.028734589
0000a0 2b c6 3e 3d 3c 00 1a bd da c8 0f 3e 4e 6c 3d 3d
       0.046575706 -0.03759788 0.14041463 0.046245866
0000b0 68 b5 1b bd bd 1f e5 3d 63 19 ef bd 99 43 2d 3d
       -0.0380148 0.11187694 -0.11674764 0.042300794
0000c0 78 36 ba bb 42 f2 ba bc 60 3c 9d 3d 42 7e 89 bd
       -0.0056827627 -0.022820596 0.07677531 -0.06713535
0000d0 93 cd 5f bd e7 d4 35 3d 29 01 67 bd 5a 98 b0 bd
       -0.05463941 0.044392493 -0.05639759 -0.08622809
0000e0 91 94 98 bc 3c a0 0c bd 5c 74 e2 bd 1d 51 aa bd
       -0.01862553 -0.0343325 -0.1105735 -0.083162524
0000f0 33 83 64 3d 79 db 2c bd e9 4f 23 3e ca 0c 76 3d
       0.055789184 -0.042201493 0.15948452 0.06007079
000100 46 cc 55 3c bd 0a 00 3e 93 3c df bc 6f 66 27 3e
       0.013049191 0.12504096 -0.027250564 0.16347669
000110 5e 84 89 bd 8c d9 cb bd 67 8e 67 bc 91 2a 42 3d
       -0.067147 -0.09953603 -0.014133072 0.047403876
000120 87 59 60 3c 07 f4 40 bd 59 13 31 bd f0 d9 03 3e
       0.01369322 -0.047107723 -0.043231342 0.12876105
000130 d4 6d 17 bd 0d 99 c4 bd 82 05 fd bd c3 97 a2 bd
       -0.036969975 -0.095995046 -0.12354566 -0.079391025
000140 e6 f7 b8 3c e9 17 0f be 49 a1 21 3d f1 9c 82 bc
       0.022579145 -0.13973965 0.039460454 -0.015943976
000150 86 c2 0f bd e1 92 28 be 8d 1c 00 be da 1e 02 bb
       -0.03509762 -0.1646228 -0.12510891 -0.0019854815
000160 91 5b ef bd 41 04 b2 bd 1e 83 24 be dd b6 ce 3d
       -0.11687387 -0.086922176 -0.16065642 0.10093472
000170 ed d3 a8 bd de 68 85 3d 48 2a 62 bd f0 e3 f8 3c
       -0.08243547 0.065141425 -0.055216104 0.030382127
000180 5f 15 4f bc dc 4d ca 3c 69 64 99 3d ef f9 a0 3c
       -0.012639373 0.02469533 0.07489855 0.019650428
000190 03 6a eb 3d dc b3 03 bd f9 39 71 bc 68 e2 04 be
       0.114948295 -0.03215395 -0.014723294 -0.12976992
0001a0 4d df 7b bd 7e fa 9f bd 33 04 bd 3d 71 13 ca bd
       -0.061492253 -0.078114495 0.092293166 -0.098669894
0001b0 35 1b 88 3d 25 91 8b 3d 89 f5 98 3d 60 21 05 bd
       0.06645814 0.068147935 0.07468707 -0.032502532
0001c0 39 f8 58 bd f9 3d a0 bc 0a 9b a0 3d 56 9a 55 be
       -0.0529711 -0.0195608 0.07842071 -0.20859656
0001d0 49 bb 2f bd 53 23 49 bb 1d 5f 03 be 6b c7 ae 3c
       -0.04290322 -0.003069122 -0.12829252 0.021335324
0001e0 2a 29 01 be 70 91 1b bb f3 d8 0d be 45 76 5b 3d
       -0.12613359 -0.002373781 -0.13852291 0.053579587
0001f0 37 cf 9f 3d 94 d5 f5 bc e9 c3 32 bd 07 ca ac bd
       0.07803195 -0.030009069 -0.043643866 -0.08436971
000200 0c 3b 31 3e 31 83 09 3e 2b 6a c7 3d fc 5c 82 bd
       0.17307681 0.13428952 0.09737047 -0.063653916
000210 48 98 b6 bd 02 b2 b8 3d 7d 85 62 bd cd e3 d1 3d
       -0.08915764 0.09018327 -0.055303086 0.10248528
000220 64 27 8a 3d 50 3e 80 bd 67 69 9d 3d 42 9c b3 3c
       0.067457944 -0.06261885 0.076861195 0.021925095
000230 76 90 17 3e dd 31 ad bb 77 67 d3 bd e8 51 2e bd
       0.14801201 -0.005285485 -0.10322469 -0.04255858
000240 33 84 76 3c c5 b9 8e bb 33 94 05 3e 50 92 c6 bc
       0.015046167 -0.0043556415 0.13044815 -0.02423969
000250 c7 a2 ed 3d 6b 1e 74 3b 84 31 04 be 5a d0 46 3e
       0.11603313 0.0037249576 -0.12909514 0.19415417
000260 4c db 31 be 17 c7 ef bd bf 19 60 3d 1e 99 b9 bd
       -0.17368811 -0.11707895 0.054712053 -0.09062408
000270 cc 30 9f bc 95 75 1f bd bc c9 76 bd 4d 0c 3a 3c
       -0.019432448 -0.038930494 -0.060250983 0.011355472
000280 0e fc a7 ba 80 ca 49 bd 8e eb 9f 3d 49 b2 07 3d
       -0.0012816207 -0.049265385 0.078086 0.03312901
000290 47 77 03 3d f0 cf e9 bc 0f 30 73 be 09 a8 a0 3d
       0.032096174 -0.028541535 -0.23748802 0.0784455
0002a0 8e 06 d3 3c 6e ac ad bd 89 98 cb bd 02 23 c4 bd
       0.025759961 -0.08480154 -0.09941203 -0.0957699
0002b0 ab c4 d2 3d 4d d7 07 3d ca 4c 99 bb 1b 7e 93 bd
       0.10291418 0.03316431 -0.0046783434 -0.07201787
0002c0 ad 28 8e bd c2 89 96 3d 91 b7 cd 3d d1 57 d6 bd
       -0.06941352 0.07350494 0.10044778 -0.104659684
0002d0 e4 fb 11 bd 90 cb bc 3d 66 a8 2b 3d b7 26 0b 3d
       -0.035640612 0.09218514 0.041908644 0.03397247
0002e0 16 83 ce 3d 11 6f b3 bd 4d 4b 35 be 49 33 2b 3d
       0.100835964 -0.087614186 -0.17704506 0.041796956
0002f0 bb 0d 3e bd 75 13 01 be bc 32 a4 bb 99 a2 0b bb
       -0.046399813 -0.12605079 -0.005010931 -0.0021306633
000300 f2 5b 22 3e 4d 9d ad 3d 8b f7 32 bd 2b 02 34 bd
       0.15855387 0.08477268 -0.043693107 -0.04394738
000310 f7 ea 8e bd 53 de ea 3b b6 6c 0e be 69 d7 5b 3c
       -0.0697841 0.0071676164 -0.13908657 0.013418057
000320 e8 a4 26 bd bf 5c b9 3d 86 bb 3f 3d 12 6f ad 3d
       -0.04068461 0.09050893 0.046809696 0.084684506
000330 d8 c0 02 be 32 f6 1b 3d 52 6d 81 3d 54 a0 d9 bd
       -0.12768877 0.038076587 0.06319679 -0.10626283
000340 d9 19 0e 3d 14 56 df 3d 2d 3a 96 3d 5d 6a 56 bc
       0.03469262 0.1090509 0.07335315 -0.013086882
000350 89 d4 6f 3c b6 71 f9 bb a3 2f a2 3c 54 a1 65 3d
       0.014638075 -0.0076124324 0.019798106 0.056062058
000360 6a be 24 3e 0d bd 91 bc 6e 70 ff bc cf 22 57 3d
       0.16088262 -0.017790342 -0.03118154 0.05252343
000370 59 0c 28 3d a2 bf 12 be 5b 66 bd bc fd 1c ce bd
       0.0410274 -0.14330915 -0.023120096 -0.10064123
000380 06 e1 c7 3c 51 63 5a 3d 48 97 a8 bd 07 6a 5e bd
       0.024399292 0.05331737 -0.082319796 -0.054300334
000390 66 0c 44 3e 20 e5 d0 3c ad a2 19 bd f0 66 09 bd
       0.19145355 0.02549988 -0.037508655 -0.033545434
0003a0 b4 d5 3a bd 4c 96 33 be ca ca 56 3d 26 26 b0 3d
       -0.04561396 -0.17537802 0.05243949 0.08601026
0003b0 b8 f2 c1 3c d4 da 85 3d 28 67 4b 3d 15 dd 22 3d
       0.023675308 0.06535879 0.049658924 0.03976162
0003c0 51 18 1f 3d 1a c9 0e 3c 31 1c ac bc 46 9a eb bc
       0.03884155 0.008714939 -0.021009536 -0.028760087
0003d0 6d 3e b3 3c af 6d b3 bd b2 a5 76 3d 76 f1 8a 3d
       0.021880353 -0.08761155 0.060216613 0.06784336
0003e0 69 11 47 be d3 2d 95 3d 63 c8 89 bb 44 15 3e bd
       -0.19440235 0.07284131 -0.004204796 -0.046407
0003f0 73 a1 27 bd d3 89 f4 bc ed 87 ba 3c 82 98 2c 3c
       -0.040925454 -0.029850876 0.022769893 0.010534408

rnn.bias_ih_l0 f4 [64]
000000 64 7d 10 3e fc 87 b5 bd aa 22 d3 3c 44 2a 12 be
       0.14110333 -0.088638276 0.025773365 -0.14273936
000010 13 b7 67 bd 3f 3e 5a 3b 7a 55 e4 3d 34 8b 8c bd
       -0.056571078 0.0033301262 0.11149116 -0.068624884
000020 14 a9 64 3e fe be ec 3d bc e4 f7 bd 7a e8 f0 3d
       0.22330123 0.11559866 -0.121041745 0.117630914
000030 10 7a c0 3d 04 6b ef bd 62 6e 1e bd f1 6f 9c bd
       0.093982816 -0.116903335 -0.038679488 -0.07638539
000040 f4 a6 49 3e 16 c0 0a be 66 11 17 bd 3d 44 9e bc
       0.19692594 -0.13549837 -0.036881827 -0.019319648
000050 91 c4 2e 3e 0e dd 03 3e 42 5d e6 bc d9 2f ea 3d
       0.17067172 0.12877294 -0.02812064 0.114349075
000060 1a 26 80 bd b3 c1 82 3d 44 8f 19 3e 13 eb af bd
       -0.06257267 0.063846014 0.14996058 -0.08589759
000070 b5 35 d9 3d 3d db b5 3d 37 36 ea 3d 3c 98 96 bd
       0.10605947 0.08879707 0.11436122 -0.07353255
000080 cf c7 11 bd ee d4 c6 3d f5 04 b6 3d 0a 14 19 3d
       -0.035590943 0.09708582 0.08887664 0.037372626
000090 ed 01 00 be 61 f1 cd bd 3b f5 d9 bd 11 31 1c 3d
       -0.12500735 -0.10055805 -0.10642477 0.03813273
0000a0 c4 4a 00 3e 3f 7c ee 3d ee fe 5e 3e 59 92 71 3c
       0.12528521 0.11644792 0.21776935 0.014744365
0000b0 78 40 80 bd e6 ad 2c be dc 10 e3 bc ff 61 e6 3d
       -0.062622964 -0.16863212 -0.027718 0.1124916
0000c0 1b 9e 4b be 40 92 42 3d bb 7a e5 3d b4 6d 42 3d
       -0.19884531 0.047502756 0.112050496 0.047467902
0000d0 62 e1 22 bd b2 a0 67 bd 89 ab b7 3d 0b 2d 15 3e
       -0.039765723 -0.056549735 0.089682646 0.14567964
0000e0 ae 8f 89 3d de cf 03 3d 8c e1 86 bd e9 20 cf 3d
       0.06716858 0.03218066 -0.065859884 0.10113699
0000f0 81 a1 05 be 59 be 4e 3c 0f 66 81 3d 06 4b 40 3b
       -0.1304989 0.012618625 0.06318294 0.0029341592

rnn.bias_hh_l0 f4 [64]
000000 c7 24 64 3e e8 be 98 3d a7 01 70 3e 77 6e cc 3c
       0.22279654 0.074582875 0.2343813 0.024955017
000010 be 35 7c bd 2b 84 a7 3c 0f 64 74 3c 1f 6e bb bc
       -0.06157469 0.020448765 0.014916434 -0.022879658
000020 ad a0 4d 3e 17 66 d0 3d 17 a3 0b be b7 0a 07 3d
       0.20080824 0.10175722 -0.13636433 0.032969203
000030 43 d7 e3 3d 79 0b 3a be 1d 04 9f bd 5f 8a a6 3c
       0.11125042 -0.18168439 -0.077644564 0.020329652
000040 d3 b7 07 3e cf 25 3a be 14 95 21 3e e0 f8 ed 3d
       0.13253717 -0.18178485 0.15779525 0.11619735
000050 75 40 a4 3d ad f8 42 bb a7 ce 52 3d 01 11 5e 3e
       0.08020107 -0.0029750273 0.05146661 0.21686174
000060 7c 6f ba bd f1 75 f0 3d 53 7c 7b 3e 65 1c a0 bd
       -0.09103295 0.117412455 0.24559145 -0.07817916
000070 41 c6 f3 3a 22 65 41 3e d5 57 ba bc 86 8a be 3d
       0.0018598513 0.18886235 -0.02274696 0.09303765
000080 71 2b 95 bd 6a 27 09 3c a2 4d 70 3d 6e e4 69 3c
       -0.072836764 0.008371213 0.058667786 0.014275653
000090 8c 8d 34 bd 64 06 d9 3c 1c a1 34 be 2d 25 92 bd
       -0.044080302 0.026492305 -0.17639583 -0.07135997
0000a0 38 a7 66 bd f2 9a b0 3d 81 59 70 3e f0 b5 2e bd
       -0.056311816 0.086233035 0.23471643 -0.042653978
0000b0 f5 ce ec bd a4 e3 a9 bd dc 2d b0 bd 92 68 31 bd
       -0.115629114 -0.08295372 -0.08602497 -0.043312617
0000c0 5c 3a 51 bd 1f 2d d5 3d c1 fe ca 3d b7 1e 67 3d
       -0.051081046 0.10408997 0.09911872 0.056425776
0000d0 ae e9 bf 3d 1b e6 c2 bc af 58 0f 3d 7d b3 22 3b
       0.09370743 -0.023791363 0.034996685 0.0024826222
0000e0 c8 f5 ed 3d 3d 92 36 bd b8 2c ff bd f7 c8 3b bb
       0.11619145 -0.044573057 -0.12459701 -0.002865372
0000f0 5c a8 f0 bd f2 2a 1b bd e9 58 42 3e 56 fb b7 3d
       -0.11750862 -0.037882753 0.18979229 0.089834854

rnn.weight_ih_l1 f4 [64, 64]
000000 bf 47 37 3e 05 88 1c be b5 8d 08 be 7f c6 cc be
       0.17898463 -0.15286262 -0.13335307 -0.3999519
000010 b5 a4 51 bc 76 31 38 be 6d 81 92 bd 86 5d 0e 3d
       -0.012795617 -0.17987618 -0.07153592 0.03475716
000020 25 8c af 3c 3d 7f 4e 3c 0c 81 bc 3c b9 dd 3c 3d
       0.02142913 0.012603578 0.023010753 0.04610989
000030 fb da 30 bd d0 8b 69 bb eb 31 89 3d e6 3d ed 3e
       -0.043177586 -0.0035636313 0.06698974 0.46336287
000040 73 00 22 3e fa 5a d8 3a 14 ac 1d bd 83 9e bf bc
       0.15820484 0.0016506605 -0.038494185 -0.023391014
000050 12 db 66 bc 80 c8 26 3d 94 b5 c9 bd 2c d8 aa 3e
       -0.014090316 0.040718555 -0.098490864 0.3336805
000060 bc 4b 66 bd 40 96 82 3f a2 c7 f8 3b b1 ab 22 3c
       -0.05622457 1.0202103 0.0075921575 0.00992863
000070 2f 88 6d be 7d 4f f0 bc ff a0 f6 bc 2e 30 08 be
       -0.23196481 -0.029334778 -0.030106066 -0.13299629
000080 e5 7e 97 be de 4e 45 3c 16 b2 22 3d 73 6d 96 3d
       -0.29589 0.012042729 0.039720617 0.073450945
000090 a7 d2 4c 3e 74 b6 94 3f 7a 4f 0d 3f 67 4a a4 3e
       0.20002232 1.161818 0.55199397 0.32088014
0000a0 a0 c8 be 3e 34 61 f1 bc 26 f9 0c bc 51 ae e1 3d
       0.3726244 -0.029465295 -0.0086043235 0.11019576
0000b0 4e 78 1b 3c 83 08 56 bc d7 8c af bb ef e6 99 3c
       0.009489132 -0.013063553 -0.0053573656 0.018786876
0000c0 60 59 aa 3c ce ac eb bd 0b cc 98 3c aa 66 da 3d
       0.02079457 -0.11507569 0.018651983 0.10664113
0000d0 b1 d7 cb 3c 1a 95 1d bd 4e 7f 91 bd 1e 80 ed 3d
       0.024883123 -0.038472272 -0.071043596 0.11596702
0000e0 62 1e 67 bd 5d 92 4a 3d c5 e3 a5 3d 33 3b c5 3d
       -0.05642546 0.04945599 0.08100084 0.09630432
0000f0 4a 50 aa bd a5 14 36 bc 65 5d 20 3d 3c ba 06 b7
       -0.08316095 -0.0111133205 0.039151568 -8.0303835e-06
000100 d3 dd 97 bd f6 71 81 bd 0a c9 e7 bd 1b 9c c6 3d
       -0.074153565 -0.063205644 -0.11317642 0.096977435
000110 14 f6 cf 3d 7b db bf bd ab 77 f3 bd bd 48 90 3d
       0.101543576 -0.093680345 -0.11888059 0.07045124
000120 8f 02 82 bd 44 d0 1b 3d f3 8c 5a 3e 07 e3 a6 3d
       -0.06348144 0.038040414 0.2134283 0.08148771
000130 1f 09 5e 3c 76 68 70 bc f2 05 23 bc 9d 4b 8a bc
       0.013551979 -0.014673343 -0.009950148 -0.016881758
000140 78 de 86 3d db ac 7e 3d 9e f8 bb 3d 03 ef 13 3c
       0.06585401 0.062176567 0.09178279 0.009029153
000150 5b 96 f3 bc b3 90 14 bd ab 70 3e 3e 44 4c 49 3c
       -0.029734781 -0.03627081 0.18597667 0.01228625
000160 b4 fc c3 3d 97 b3 8f bd c2 43 27 3e 04 d8 a9 3d
       0.09569684 -0.07016676 0.16334441 0.08293155
000170 fc f2 23 be 54 24 12 be 55 df 35 be ad 6f 1c 3e
       -0.1601066 -0.1427167 -0.17760976 0.15276976
000180 4d 2c 61 3d 18 ae 93 3d 57 a9 f6 b9 37 53 21 be
       0.05497389 0.0721094 -0.00047046944 -0.157544
000190 ed 6b 23 3e 0d 36 e4 3b c8 e7 1d 3e a7 95 9d bd
       0.15959139 0.006964451 0.15420449 -0.076945595
0001a0 10 2e 30 bd f2 1b 2a be ba 11 82 bd 67 bc 61 bd
       -0.04301268 -0.16612223 -0.06351037 -0.055111315
0001b0 2a c2 b9 b9 ad 2b 37 3e d7 37 38 3e a5 89 e0 bc
       -0.00035430613 0.17887755 0.17990051 -0.027409384
0001c0 bd ae 49 3d 91 6e 47 3b 98 3a 1c be 5f 91 0c be
       0.04923891 0.0030430893 -0.15256727 -0.1372733
0001d0 04 64 d3 3d df d9 3d 3d f9 84 8d 3c 88 e6 dd 3d
       0.10321811 0.046350356 0.01727532 0.10834986
0001e0 21 ba a2 3c 37 e3 06 3c 81 1f a9 3d aa 4d cc bc
       0.019864144 0.008232883 0.08257962 -0.024939377
0001f0 48 03 23 3e 1e 6f 7d 3d 9b 70 9f bd de 66 b4 bd
       0.1591922 0.061873548 -0.0778515 -0.08808683
000200 f7 20 57 3d ca 97 01 3e f0 99 a7 3d b7 46 10 3d
       0.052521672 0.12655559 0.08183658 0.03522369
000210 7e 51 46 3b 0e 1e a9 bd 19 e7 5d be 3d ef db 3c
       0.0030260975 -0.082576856 -0.21670188 0.026847476
000220 a3 c7 da bd 17 1b 10 be 47 fb dd 3c 77 92 0c bd
       -0.10682609 -0.14072834 0.027097357 -0.034319367
000230 7f 84 9b 3d 79 84 88 bd 44 84 97 bd a0 cc b8 bd
       0.07593631 -0.06665892 -0.073982745 -0.09023404
000240 3e 3b a8 bd 8b 03 a6 3d 62 32 e9 3b 13 35 ec 3d
       -0.082144246 0.081061445 0.007116602 0.115335606
000250 a1 f2 50 bd f4 16 6d bd 7b a4 ca 3d 50 20 01 bb
       -0.05101264 -0.057883218 0.098946534 -0.0019703098
000260 b1 d7 ff bd 41 20 c9 bd 4c 80 51 3e 7a 7d ab 3d
       -0.12492312 -0.09820605 0.20459098 0.08373542
000270 86 9b f9 3b dc 1a 30 be 45 4c 13 be 30 0f fd 3d
       0.007617417 -0.17197746 -0.14384563 0.123564124
000280 db a1 59 3d 41 75 81 bd d3 c8 0e be 44 b6 29 be
       0.053132873 -0.063211925 -0.13943796 -0.16573435
000290 9e 4a 2e 3e 94 07 17 be 6d 5f c6 bd 33 ae c8 3d
       0.17020652 -0.14748985 -0.0968617 0.09798851
0002a0 b8 89 2a bd c6 df 1d be b3 e5 70 bc be 2f 01 be
       -0.041635245 -0.15417394 -0.014703202 -0.12615868
0002b0 b4 65 0d bd 60 32 ca 3c 6d 4f 92 3d 9e 98 a8 bd
       -0.03452082 0.024682224 0.071440555 -0.082322344
0002c0 df 98 1d 3d c7 0e b3 bb eb f6 0d be 44 54 6f bd
       0.038475867 -0.005464408 -0.13863723 -0.05842997
0002d0 01 d9 76 bc 4b 13 0e 3e dc e4 f4 bb fa 35 04 3d
       -0.015066386 0.13874547 -0.007473571 0.03227804
0002e0 ad e7 4c be 54 74 5b 3d d2 08 fc 3d f6 e2 14 3e
       -0.20010252 0.053577736 0.1230637 0.14539704
0002f0 33 1c f9 3d 5b 79 b1 bc be 9b f9 bd 53 09 23 bd
       0.12163582 -0.021664312 -0.121879086 -0.039803814
000300 62 49 53 3d 00 48 ed 3d c7 22 ca bc 90 ae 19 3d
       0.051583655 0.115859985 -0.024674786 0.03751999
000310 a9 dd c9 3d 0d d9 f7 3d 24 3d 18 be 2b e8 f3 3d
       0.098567314 0.12101946 -0.14867073 0.11909517
000320 c4 02 7d be 39 fe f6 bd d9 2f a8 3d ac 4c da 3d
       -0.24708086 -0.12060208 0.08212251 0.10659155
000330 55 2f 5b bd c3 67 a0 bd 91 5a cc bd 0e e8 d2 bd
       -0.053511936 -0.07832291 -0.09978212 -0.10298167
000340 4d 02 01 be d4 14 48 3e 06 cb 42 bd 05 ac 18 3d
       -0.12598534 0.19539195 -0.0475569 0.037273426
000350 30 a8 4b bd 56 ef d3 bd 35 5d 18 3e b5 48 90 bd
       -0.049720943 -0.10348384 0.14879306 -0.07045118
000360 56 e7 2b be b5 33 e0 bd ba 27 43 3c 92 78 66 3e
       -0.16787466 -0.10947362 0.011911327 0.22506931
000370 c6 3d 9c 3d 7d 2e e3 bd 75 c2 e1 bc 7a 56 11 3e
       0.0762897 -0.11092851 -0.027558545 0.14193144
000380 1d 7b b2 3d e4 e5 05 be 0a 7f 6a bc 5e cf 1b bd
       0.08714888 -0.13075978 -0.014312515 -0.038039558
000390 17 e7 13 3e cf 2a bb bd d3 50 93 bd b1 b1 2d bd
       0.14443623 -0.091390245 -0.0719315 -0.042405788
0003a0 e5 2c 57 be 37 4a 2d be 4b 8d 3f be dc cf 82 bd
       -0.2101322 -0.16922842 -0.18706243 -0.06387302
0003b0 ba 40 7a 3d 48 6e 12 3e 35 10 b9 3d 20 fd f4 bd
       0.061096884 0.14299881 0.09036294 -0.11962342
0003c0 9d 22 33 3c fc c7 37 be 16 46 d9 bd 22 3a 20 be
       0.010933545 -0.17947382 -0.10609071 -0.15647176
0003d0 1a 6d 1c 3e 9f fa 99 3c bc b6 d5 bd 22 a4 8d bd
       0.15275994 0.018796263 -0.104352444 -0.069160715
0003e0 e1 53 65 be 69 49 11 3e 68 cf 46 bd cd 48 12 bd
       -0.22395279 0.1418816 -0.04853764 -0.03571396
0003f0 44 9f e2 3d ba ec 9e bc b4 51 af bd 79 84 24 3c
       0.11065534 -0.01939999 -0.085605055 0.01004135

rnn.weight_hh_l1 f4 [64, 64]
000000 ac 9e b1 3d c7 a0 08 3d f4 d1 48 bd eb e7 94 3d
       0.086728424 0.033356454 -0.049028352 0.07270797
000010 33 ea 40 3c 83 8e 28 bd af 90 80 bb e1 f1 b0 bd
       0.011774587 -0.041151535 -0.0039234976 -0.08639885
000020 03 ef 64 3e 5d 5b 18 3e e7 f6 09 3e 12 24 0b 3d
       0.223568 0.14878602 0.13473092 0.033969946
000030 4f 25 07 be 51 e2 15 bd 1a 44 4d 3d da 78 e7 bd
       -0.13197826 -0.036592785 0.050113775 -0.113023475
000040 d0 ef a8 bd 74 44 88 3d 8e 6b 0d 3d 23 70 88 3d
       -0.082488656 0.066536814 0.0345264 0.066620134
000050 50 27 a6 bc 0b 9c 2f bd b7 5b 5e bd f4 8b ab bd
       -0.020282418 -0.042873424 -0.054286685 -0.08376303
000060 70 d5 7e 3e af e0 1f 3e d4 fd 40 3d 7b e2 6f bd
       0.24886107 0.15613054 0.04711707 -0.058565598
000070 c1 68 9b be 8b c2 3e bc 6f fe a7 3d cb 1c 89 be
       -0.30353358 -0.011643062 0.08202826 -0.2677978
000080 97 3d 96 bd 75 f1 fb 3d 12 8d 28 3f 3e 98 30 bb
       -0.07335966 0.12301914 0.65840256 -0.0026946212
000090 46 84 01 bd 7b ef ed 3d de e3 76 bd bd 16 d9 bd
       -0.031620286 0.11617943 -0.060275905 -0.1060004
0000a0 05 57 10 bd 46 59 ef bd 67 ed 8c bd af 6a c6 bd
       -0.03523924 -0.116869494 -0.068812184 -0.09688317
0000b0 df 12 9a be e5 17 19 bc e5 66 3f be 49 45 0d 3e
       -0.30092523 -0.009344076 -0.18691595 0.13795961
0000c0 77 73 c6 bc 5e c9 e2 3d fa 9c 0a bd 8e 94 75 3d
       -0.02422498 0.11073564 -0.03384111 0.059956126
0000d0 78 af a9 bd 82 3d 8e 3e ad b1 b5 bd 84 f1 97 bd
       -0.08285421 0.27781302 -0.088717796 -0.07419112
0000e0 77 a8 05 bc cb 7c 49 3d 5d e9 be 3d 14 76 72 bd
       -0.008157841 0.049191277 0.09321854 -0.05919464
0000f0 2e 03 ad 3d ea 5e b8 3d 12 d7 91 3d e4 77 8a bd
       0.08447872 0.090024784 0.071210995 -0.067611486
000100 4b 95 ed bc 9e c9 8c 3d fd cb 0e bd 73 08 7c 3e
       -0.029001852 0.06874393 -0.034862507 0.24612598
000110 b0 86 15 bd dc f7 09 be d5 2c ad 3d 2a 4c 85 bd
       -0.0365054 -0.13473457 0.08455817 -0.06508668
000120 3c c1 5e 3d b0 08 39 3e 5c 3d 91 be a2 d1 32 be
       0.0543835 0.1806972 -0.28367126 -0.17462781
000130 ce 74 84 be 41 2b 87 be 9b 9e 28 be ec 9e ab 3d
       -0.25870365 -0.26400188 -0.16466753 0.08379921
000140 f2 7d 5a bd 0b 5f 27 bc 0c a8 83 bd 56 68 98 3e
       -0.053342767 -0.010215531 -0.06428537 0.29767102
000150 3b b4 ba bc 59 0c 08 bc 0b 20 de bd 89 3e ae 3d
       -0.022791019 -0.008303725 -0.108459555 0.085080214
000160 97 9c 1e 3e 62 40 81 3e cc d9 33 3e f4 df a5 bd
       0.15489422 0.25244433 0.17563552 -0.08099356
000170 c0 1c 19 3d 74 92 ae 3d 5f 5e 0e bd 39 0c ee bc
       0.037380934 0.085240275 -0.034757968 -0.029058563
000180 21 27 a2 bd 6c 18 17 be c0 0e 5d 3d 85 2f f4 bd
       -0.079176195 -0.1475541 0.053969145 -0.11923126
000190 ff 86 83 bd aa 85 52 3a d7 21 6d be 7a ba 5d be
       -0.06422233 0.0008030782 -0.2315744 -0.21653166
0001a0 e2 c8 25 3d 81 0e a6 3d 41 91 9c 3d 58 72 c3 3c
       0.04047478 0.08108235 0.076448925 0.023858234
0001b0 df 81 66 bd 79 c4 bb 3c 26 af 09 3e a6 92 40 be
       -0.0562762 0.022920834 0.1344572 -0.18805942
0001c0 13 dd ae bc 99 b3 8f bc 9b b3 6c 3e 15 11 9a 3d
       -0.02134565 -0.017541694 0.23115389 0.075227894
0001d0 73 ee 14 bd f6 9e fe 3d 94 90 2a 3d a2 3f 74 be
       -0.036360215 0.12432663 0.041641787 -0.23852399
0001e0 ed 09 19 3e 10 fe 69 3d 22 34 8d bd bf 15 80 3e
       0.14945193 0.05712706 -0.06894709 0.2501659
0001f0 8c 88 1e bd 66 4e f8 3c 92 b3 46 b9 02 50 9b bd
       -0.03870444 0.03031082 -0.00018949647 -0.0758362
000200 77 27 a7 3d 75 fc 57 3e 57 1c 3b 3e 97 84 00 3e
       0.08161824 0.21092398 0.1827253 0.12550579
000210 0d b4 27 bc 02 2e 85 bc 1a 60 81 3e 0d cb 14 3e
       -0.010235799 -0.01625729 0.25268632 0.14530583
000220 31 0a 24 be ce fb 64 3a c7 1c 3e be 38 c1 a2 bd
       -0.16019513 0.00087350316 -0.18565665 -0.0794701
000230 05 56 a3 bc cd 9c d7 ba 2d 23 8a be 63 03 5d 3e
       -0.019938478 -0.0016449929 -0.26979962 0.21583323
000240 9a 17 05 be e0 b0 7d bd aa b4 f7 3c 58 74 73 3e
       -0.12997285 -0.06193626 0.030237515 0.2377485
000250 56 c0 91 bd 23 c0 c3 3c 21 42 1e bd 3c 95 91 bd
       -0.07116763 0.023895329 -0.038637284 -0.07108542
000260 eb ab 03 3d b3 a7 0e 3e 3f ba 42 3e af 9e 35 bd
       0.032146376 0.1393116 0.1901636 -0.044340786
000270 66 cf 4b bd c9 45 14 3d 05 7e 80 3c d4 3e 8e 3c
       -0.049758337 0.036199365 0.01568509 0.017363943
000280 f6 49 6f be 48 11 4f be 7b e5 d1 3d a9 45 0c be
       -0.23368058 -0.20221436 0.10248848 -0.13698448
000290 76 6c dd bd 32 6a 0b be ca 89 28 be b3 fa 88 bd
       -0.10811703 -0.13614729 -0.16458812 -0.06688442
0002a0 cd d6 a2 3c b6 15 a4 3e 1d 35 a1 3d 74 ff aa bc
       0.019877816 0.32047814 0.07871459 -0.020873763
0002b0 b4 b8 d3 bd ee 63 22 be 27 dc d1 3c 8f 3b fd bd
       -0.10337964 -0.15858433 0.025617672 -0.123648755
0002c0 8b cc f0 bd 9e f5 54 3c 34 13 cd 3d 30 9a bd 3c
       -0.117577635 0.012998013 0.10013428 0.023144811
0002d0 de b3 c7 3d b3 59 17 3e 9b 4e 7a 3e 19 62 92 be
       0.09751104 0.14780311 0.24444048 -0.28590468
0002e0 a5 6c 45 3e 0f 11 6a 3d ac ab 0e 3e 06 20 ac 3c
       0.19279726 0.057145175 0.13932675 0.021011364
0002f0 0f 80 76 bd 11 44 2a 3e d5 d3 b9 bc a3 a6 91 3d
       -0.06018072 0.16627528 -0.022684017 0.071118616
000300 e1 a8 f2 3b d7 6e 3e 3e 08 45 96 3d 4f fa 9a 3e
       0.007405386 0.1859697 0.073373854 0.30269095
000310 d8 ac df 3d 5d 95 8a bd c1 07 8d 3d 2e 86 94 3c
       0.10921639 -0.0676677 0.068862446 0.018130388
000320 34 89 a8 bd 17 0d 65 3d 3c f4 83 be a9 da ae 3c
       -0.082292944 0.055920687 -0.25772274 0.0213445
000330 ce d4 19 bd 6d 10 c8 bd 52 45 12 be d4 9f 85 3d
       -0.037556462 -0.09768758 -0.14284256 0.065246254
000340 94 05 7f bc ab 42 89 bd 0a 72 17 be 83 a9 53 3e
       -0.015565295 -0.06702169 -0.14789596 0.20670132
000350 d9 b2 14 bd 9d fc d8 3c 14 af 35 bd 86 1c 24 3e
       -0.036303375 0.026487643 -0.04435642 0.16026506
000360 ea aa 48 bd c6 8d 16 3e 0a 1b 6a 3d 45 21 00 3d
       -0.04899112 0.1470252 0.057154693 0.03128173
000370 91 8d 1b bd 06 f1 1c 3e df cd 0f bd 0f 70 8b bd
       -0.037976805 0.15326318 -0.035108443 -0.06808483
000380 c1 81 11 be 07 ed 01 be ce 1e 81 3c 06 ad 6f bd
       -0.14209653 -0.12688075 0.01576176 -0.058514617
000390 c4 6b 87 be f7 de 9d 3d 99 87 1b bc 0c d4 8a be
       -0.26449406 0.07708543 -0.009492778 -0.27114904
0003a0 a1 7b 25 3e 2c 60 81 3e 19 27 bc 3d 6c d1 61 3d
       0.16160442 0.25268686 0.09187145 0.05513136
0003b0 49 7e d2 bc c5 84 d5 bd 44 04 3c 3d 71 de 84 bd
       -0.025694983 -0.104257144 0.045902506 -0.0648774
0003c0 46 86 0e ba e8 d1 e5 bc c0 8d 0f 3e b2 c6 10 3e
       -0.00054368784 -0.028054193 0.14018917 0.14138296
0003d0 5c b1 ff bc 17 8f 9a 3d 8f 63 9d 3e 95 4d 9f be
       -0.031212501 0.075468235 0.3074002 -0.31113878
0003e0 82 21 d5 3d cd e6 f3 bd 27 e6 9a 3d 87 69 78 3e
       0.10406782 -0.11909256 0.07563429 0.24259005
0003f0 f9 e1 2a 3d 63 46 18 3e 1f 42 26 3d 6d 41 f5 3c
       0.04171941 0.148706 0.0405904 0.029938424

rnn.bias_ih_l1 f4 [64]
000000 b8 f1 9d bd 7b fe 83 be e3 1d 5b be d6 4f b9 bd
       -0.0771212 -0.2578009 -0.2139812 -0.090484306
000010 ee 49 0b be fb af 67 bd 20 6f 45 be a7 34 5b be
       -0.1360242 -0.056564312 -0.19280672 -0.21406804
000020 4b b2 c0 bd 41 ee 8b bd 3e ab 4b 3e 2e 1f 68 3d
       -0.09409007 -0.06832553 0.19889542 0.05667036
000030 bc c1 58 bd dc 22 a7 3d 30 ce 06 3d 9c b7 39 bc
       -0.052919134 0.08160946 0.03291148 -0.01133528
000040 d5 d3 a5 3c 25 eb c1 bd 52 a2 14 3c 38 80 70 bc
       0.020242611 -0.094686784 0.009071903 -0.014679007
000050 5d e4 53 3e 28 ea be 3d aa bc 86 3c bc 74 0c be
       0.20692582 0.093220055 0.016447384 -0.13716406
000060 b1 d3 7c bd 5c da b3 bd b8 61 88 be 7c 9f 0d 3e
       -0.061725322 -0.08781883 -0.26637053 0.1383037
000070 bf 95 04 3e 6e 4d f7 3d 4d e3 62 be d7 75 b8 3c
       0.12947749 0.120753154 -0.22157021 0.022517128
000080 03 cc 31 3e 62 3f 2b 3a 84 57 ba 3d 7c 85 cc bd
       0.1736298 0.0006532577 0.090987235 -0.099863976
000090 cc 59 b5 3d 49 49 c6 3c 75 6d 07 3e ff 3c 88 3d
       0.08855018 0.024204867 0.13225348 0.06652259
0000a0 7d 96 1a be 22 44 c3 bd b4 cc 7a be 60 88 3e be
       -0.15096469 -0.0953448 -0.2449215 -0.1860671
0000b0 fc 10 17 3d 64 67 80 3e 54 5a 86 bd ad f1 cc 3d
       0.036881432 0.2507888 -0.065601975 0.100070335
0000c0 d5 40 0e 3d 86 1d 3e 3e b3 ce 50 be 78 31 f9 3c
       0.034729797 0.1856595 -0.2039135 0.030419096
0000d0 8d 92 55 be 30 cf 87 ba a0 12 3f bd 37 8a fa 3d
       -0.20856686 -0.0010361429 -0.04664862 0.12233394
0000e0 bc 51 fe bd e4 56 02 3e 31 cd 2e be c1 12 41 be
       -0.12417933 0.12728459 -0.17070462 -0.1885481
0000f0 76 d2 9d bc b7 5c ed bc e4 a6 ba bd bb a9 e6 3d
       -0.019265395 -0.028974874 -0.09113863 0.11262842

rnn.bias_hh_l1 f4 [64]
000000 ef dc 30 3d 50 27 39 be 47 00 3f be 1a 54 8f be
       0.04317945 -0.18081403 -0.1865245 -0.27993852
000010 4d 6c 03 be 05 08 5f 3d 66 92 cb bd 2a f1 b0 3a
       -0.12834282 0.054451007 -0.09940033 0.0013499607
000020 71 8c 16 be 6f 4b d1 bd 86 b1 41 3d 1d 1e 27 3e
       -0.14702012 -0.10219466 0.04728844 0.16320081
000030 c0 fe 5b 3d 40 92 7c b4 91 8b d1 3c 3f 29 5d 3c
       0.053709745 -2.3522534e-07 0.025579246 0.013498603
000040 32 94 90 3d d5 c7 1a bc 7b 1d 2f 3e c6 1c d1 bd
       0.07059516 -0.009447058 0.1710109 -0.10210566
000050 00 14 83 3e f7 3d 9b bd ea 6a f3 bd f2 14 10 be
       0.25601196 -0.07580178 -0.118856266 -0.1407049
000060 17 11 69 bc 62 ff 12 3d 72 5c 3d be 52 5f 85 bc
       -0.014225266 0.035888083 -0.18492296 -0.016280804
000070 f1 19 1a 3e 0d e2 82 bd 82 e3 10 be 2b b2 29 3e
       0.15048958 -0.06390772 -0.14149287 0.16571872
000080 69 99 ce 3d 12 69 de 3b d9 46 fe bb 58 2d 66 3d
       0.100878544 0.0067874277 -0.0077599105 0.056195587
000090 9c d5 54 3e d3 f8 19 3d 84 00 ae 3d d8 aa 36 3e
       0.2078461 0.037590813 0.08496192 0.17838609
0000a0 ab fe e0 bd 52 e7 52 be 20 d2 44 be 3f 4c 2a bc
       -0.10986074 -0.20596054 -0.19220781 -0.010394155
0000b0 86 d2 7f 3c 7b 9e 34 3e a7 a1 e6 bb 5b 42 57 3e
       0.015614158 0.1763858 -0.0070383134 0.21021406
0000c0 be bd fe bd 85 ae 04 3e fb d5 94 bd 45 39 02 be
       -0.12438534 0.12957199 -0.07267376 -0.12717159
0000d0 19 d6 2b bd 05 0b a0 3d e4 f6 39 be d0 85 93 3e
       -0.041952226 0.07814602 -0.18160588 0.28813028
0000e0 a7 17 35 be 10 fc 59 3d 71 80 60 be cc 65 ee 3c
       -0.17684804 0.0532189 -0.21923997 0.029101275
0000f0 86 bf 80 3d e6 98 95 bd 29 48 fe bc e9 b2 db bd
       0.0628653 -0.07304554 -0.031040268 -0.10727484

fc.weight f4 [1, 64]
000000 48 34 5b bc b9 b4 54 be 02 08 2e be ab d2 3b be
       -0.013379164 -0.20772065 -0.16995242 -0.18342082
000010 01 42 d7 bd ab 17 9c 3e 95 46 74 be 2e 7d c4 bd
       -0.10510636 0.30486807 -0.2385505 -0.09594189
000020 d2 48 48 be e3 2a b2 bd ff 27 84 3e 9f 1a 23 3e
       -0.19559029 -0.08699586 0.25811765 0.15928124
000030 a5 15 6f 3e c1 57 59 3e a0 62 66 3e b2 5c e3 bd
       0.233481 0.21224882 0.2249856 -0.111016646
000040 3a 49 66 3e 59 1d 20 be 53 fb 13 3e c8 8f 85 be
       0.22488871 -0.15636195 0.14451341 -0.2608626
000050 c6 fd 33 3e 00 21 8c 3e 1b f1 bf bd 4d 73 6d bd
       0.17577276 0.27368927 -0.09372159 -0.057971288
000060 1f bf 7c be cf 3d 8b bd 0e 0c 4f be ed 24 41 be
       -0.24682282 -0.067988984 -0.20219442 -0.18861742
000070 8f 77 61 3e 9e eb 66 3e e2 4c fa bd b0 09 1d 3e
       0.22018264 0.22550818 -0.122216955 0.15335727
000080 be df 21 3e bc d1 00 bf 97 b3 86 be 1d 15 02 be
       0.15808007 -0.5032003 -0.2630889 -0.12703367
000090 52 c7 0f 3e 7b 51 52 be 2a 97 1b 3e 07 6e 4e 3e
       0.14040878 -0.20538895 0.15194383 0.2015916
0000a0 13 5a 8a bd ab f6 6c be 20 de 02 be b1 f2 e7 bd
       -0.067554615 -0.23140971 -0.12780046 -0.113255866
0000b0 e7 7f 77 3e 44 bc 18 3e e7 d0 89 3e b7 10 83 3e
       0.24169885 0.14915568 0.26917192 0.2559869
0000c0 97 02 54 be bb f4 2f 3e 44 d2 07 be 3f 15 81 be
       -0.20704113 0.17183201 -0.13263804 -0.25211522
0000d0 32 b6 52 be c4 03 b2 be da cc 67 be d1 20 44 3e
       -0.20577314 -0.34768498 -0.22636738 0.19153143
0000e0 8e be 51 be ba a6 7a be 81 a7 b1 bd af 17 c5 bd
       -0.20482847 -0.24477664 -0.08674527 -0.09623658
0000f0 db 5f 2c 3e 00 95 89 bd d5 bf 4a 3e 4b 68 81 3d
       0.16833441 -0.067178726 0.1979974 0.063187204
