assignments/4/cnn_autoencoder.pth (torch, 855878 bytes, 15 tensors)

encoder.0.weight f4 [8, 1, 3, 3]
00000000: f26c ee3d c9de 00be 7aea 303e 591a edbe
00000010: 7fa7 64be 752b 8f3d b779 573d 1377 163b
00000020: 401b 8fbe 97db cdbe 1c22 24be dde2 2ebe
00000030: d927 be3a 2fbf ebbd 5fd0 c1be 7dc2 25be
00000040: 8557 41be 11af 073e 116e adbe 853e 433e
00000050: fd1e b23d ca23 f43e efb4 c9be c925 8c3e
00000060: 3e70 833d 11fc 32be d9b2 cebe bd32 72bc
00000070: b4d5 49be 7c58 9abe 8e6c 2e3e f37f 8ebd
00000080: 5674 c8be 75af a5be 3309 49be e8fd 3fbd
00000090: 8a36 7fbe 008f 843e 24f5 6bbd 79d2 76be
000000a0: 20df 51be f4ff 9dbe 8b6d 2ebe 10ba 4f3e
000000b0: cd0d a1be d817 c73d c45e 07bd a9aa b2be
000000c0: 7390 073f d858 4b3d ef7c 4e3e 05e0 173e
000000d0: 0502 bdbe f1cb c2be 0c19 b2be a4cd 0e3e
000000e0: 0bf2 d3bd 6abb b9be 16c8 a7be 3e34 4dbe
000000f0: 9e80 173d aac0 4cbe 4c1d fb3d 4f2a e2be
00000100: 6621 7abe e65a 0ebe 9bc4 5dbe ac7e f3bd
00000110: 6e45 9fbe ac1e 25be f217 4b3e 0d4e 1ebe
0.116418734 -0.12584986 0.17276946 -0.46309164 -0.2232952 0.06990711 0.05260631 0.0022959157
-0.27950478 -0.40206596 -0.16028637 -0.17078729 0.0014507725 -0.11511075 -0.37854287 -0.16187473
-0.18881042 0.13250376 -0.33873037 0.19066818 0.08697317 0.47683555 -0.39395854 0.27372578
0.06417893 -0.17478968 -0.40370825 -0.014782605 -0.19710428 -0.30145633 0.17033598 -0.06957998
-0.39151257 -0.32360426 -0.19632415 -0.046873003 -0.24923149 0.2589035 -0.05760683 -0.24103726
-0.20495272 -0.3085934 -0.17033975 0.20285821 -0.31455842 0.09721345 -0.03304936 -0.34895828
0.52954787 0.049645275 0.20164846 0.1483155 -0.36915603 -0.3804622 -0.34784734 0.13945633
-0.103489004 -0.36275798 -0.3276984 -0.2003946 0.036987893 -0.1999537 0.12261447 -0.44172904
-0.24426803 -0.13901863 -0.2165703 -0.11889395 -0.31107658 -0.16124982 0.19833353 -0.15459462

encoder.0.bias f4 [8]
00000000: 1278 b13e 41d5 c9bc 7ec9 083d 29d1 67be
00000010: 4ec3 1abe df8f aabd 8acc 7bbd 460f 4d3e
0.3466192 -0.02463782 0.033395283 -0.22638382 -0.15113565 -0.083282225 -0.06147436 0.20025358

encoder.2.weight f4 [16, 8, 3, 3]
00000000: 766e d53d 2e2b a6bd c3c8 01be 5e10 78bd
00000010: ad4b dbbc 3983 0d3d 9be7 b93d 3100 a7bd
00000020: 512f 3dbc e389 01bd aa85 3bbd a34f 6c3d
00000030: 561d cd3d 4a2c 7e3d 9e0a 73bd 6e2d a53d
00000040: 3029 313e 1f49 3e3e 46d8 2abd 2f25 a0bd
00000050: c20e 013d 4341 19bd 0d6e b53e 4346 6cbe
00000060: be9a 0f3d 5ec0 e0bc 6213 66bd 560b f13d
00000070: e264 523d bfcd d03d 11b1 283e f744 f53b
00000080: b9a7 cbba af06 c33d b118 ecbc 677f db3d
00000090: 7674 88bd b682 863d f174 18bd 02e3 003e
000000a0: f657 7cbc aa42 b43b 654f ec3c d591 313e
000000b0: c8e6 66bc be94 a5bd a3ae a0bb 760b a9bd
000000c0: 345b d83d 12ee dc3e a71c 3bbe dfac 3dbd
000000d0: 14c5 c73d 93e6 24bd 6500 103e 1248 113e
000000e0: e552 dcbc 2d56 cd3d 3ef6 433d 6142 44bd
000000f0: 9443 a03c 3a84 373e e937 293e 06f0 d33d
00000100: 2000 393e 44fb 803d 7e89 e9bc b406 5f3c
00000110: 1259 063c ecd0 b43d c31a 0a3e 501b 893d
00000120: 8f00 42bc 8b48 db3d b08a f23b ed7d acbd
00000130: f290 cf3c 0ecf 60bd f53a 123d 0af5 1fbd
00000140: f5ef 97bd af7e 183e 4fcc dc3c fc23 3abd
00000150: f2da f23c d4a1 9b3c bbc3 b33c 7a04 0a3e
00000160: 0ba1 3f3d 8209 643d a636 303d e4fe 013d
00000170: c3c8 42bd 40a5 61be 077a 723e 2144 94be
00000180: e587 1ebe bcdf 803d b2d7 ef3c 9919 f13d
00000190: b18d e73b e6d5 0c3e e83b b23d 415c 183e
000001a0: dbc7 9a3d 0df0 f93c e1dc 7cbc 484d e3bc
000001b0: 8425 083e a61b 0e3e 0c07 1b3e 1323 36bd
000001c0: e012 82bd 1b87 f238 e4c8 403e 7319 dc3d
000001d0: 45fe bc3d a4bd 83bc 1744 0b3c 2c68 a8bd
000001e0: 2761 3dbe a1d8 e63e 8683 7ebe 923d 463b
000001f0: fccd fc3d 8baf b93d 0b30 013d 1753 0e3e
00000200: 1337 133e dee6 4ebd a99e b93d 9013 0c3d
00000210: 0932 273e a6e1 82ba a3f3 97bc f9bf cdbc
00000220: 6336 053e 5e54 33bd 299b fe3c c735 48bd
00000230: 518d 71bd f57f 8abd 8b22 3d3e 11c8 c23d
00000240: f7b3 c93b b92b 813d 1aa4 fdbd fb10 b0bd
00000250: f7ae 31bd 9d4a debc fcc0 82bc d83c ba3b
00000260: 3326 5f3d 17b5 a43c 255b 5cbd d1c8 443c
00000270: 2419 013d 7dae a13d d6e4 a23d a4ae 083c
00000280: 6459 4b3e 6cf4 0b3e fbb0 9abd 57e0 623d
00000290: 0c04 e9bd ea2f 83be 37db 903e 7f9a 53be
000002a0: d387 41be 62de 9bbd 58a4 79bd da2a d7bd
000002b0: 26f9 973c 7937 613b 3bd8 7dbd 9432 b83d
000002c0: e44d 9cbc 409d 073d ab64 0c3e f292 f8bc
000002d0: 1842 15bd 09cf 6ebc 257d d33d 80f9 ec3d
000002e0: ff30 8b3b 2b7e 7d3d 9532 173e 8793 c53d
000002f0: 4393 003e c960 4fbd b3d1 823d b0fd 3a3d
00000300: 2542 f7bd 2b83 ce3e 5d65 38be 087f bcbd
00000310: cf9d 90ba 7f9a 4cbd 6e55 74bd e819 aebc
00000320: 85c0 2abd 8ccb 4c3d a9fd c5bd 8c55 a9bc
00000330: d763 5a3e 468d 5d3e ca58 473e f7a1 213d
00000340: 2fcf 053d f580 583c e9fd 8a3c 43c3 8b3d
00000350: 16e3 113e 276f a13c 22ad 003d 31f4 e73d
00000360: 0f13 1ebc 9d7c 193c 172d 30bc cb32 afbd
00000370: 9803 983c 5a2f 66bd b4f7 c73c 4364 f23d
00000380: 204a f93c 5d45 993d 907a a13c 6da3 393e
00000390: eb03 d23d f35c 933d 42be 64bd 6b2c 3f3e
000003a0: 9ed6 2b3e 4214 583e 542d 513c 5172 a2bd
000003b0: 82f3 203d 9e8a a53b e516 383e 71d5 5abe
000003c0: 5d63 013d 29e2 5e3d 5091 09bd f609 f23d
000003d0: 6af6 9f3d 0920 133e 2776 c7bc beb2 133e
000003e0: e97d c13c 43d9 95bc 1064 09bc 2c78 063e
000003f0: 00c2 9bbd 7316 553d ac76 773c 9ef7 f43c
0.104214594 -0.081137046 -0.12674241 -0.060562484 -0.026769483 0.03454897 0.09077378 -0.081543334
-0.011546926 -0.03162564 -0.04578177 0.057693135 0.10015361 0.062053956 -0.059336297 0.08065306
0.17300868 0.18582581 -0.04171016 -0.07819592 0.031508215 -0.037415754 0.35435525 -0.23073678
0.035059683 -0.027435478 -0.05617083 0.1176974 0.05136574 0.10195493 0.16473795 0.007485028
-0.0015537656 0.09522759 -0.028820368 0.107176594 -0.06662838 0.065679 -0.0372209 0.12586597
-0.015401831 0.005501111 0.028846452 0.17340787 -0.0140931085 -0.08085011 -0.004903631 -0.08254139
0.105642706 0.43150383 -0.18272649 -0.04630744 0.097543865 -0.040258955 0.1406265 0.14187649
-0.026894996 0.10026202 0.047842257 -0.047914866 0.019563474 0.17921534 0.16525234 0.10348515
0.18066454 0.06297925 -0.028507944 0.013612438 0.008199947 0.08828911 0.13486771 0.066946626
-0.0118409535 0.10707196 0.0074017867 -0.08422456 0.02533767 -0.054884963 0.035700757 -0.039052047
-0.07418815 0.14892076 0.02695289 -0.045444474 0.029645417 0.018998064 0.021943917 0.1347827
0.046784442 0.05567313 0.043020867 0.031737223 -0.047554743 -0.22035694 0.23679362 -0.28958228
-0.15481527 0.06292674 0.029277656 0.117724605 0.0070664515 0.13753471 0.087028325 0.14878942
0.07557651 0.030509973 -0.015433521 -0.027746812 0.13295561 0.13877735 0.15139407 -0.044467043
-0.06351256 0.000115646246 0.18826634 0.107470416 0.092281856 -0.016081639 0.008500121 -0.08222994
-0.18494092 0.4508715 -0.2485486 0.00302491 0.12343976 0.09066685 0.031539958 0.13898884
0.14376478 -0.05051314 0.09063465 0.034198344 0.1632768 -0.0009985461 -0.018548792 -0.025115954
0.13009028 -0.04378163 0.031079846 -0.04887941 -0.05897266 -0.06762687 0.18470208 0.09510816
0.0061554867 0.063071676 -0.123848155 -0.08596989 -0.04337975 -0.027135188 -0.015961163 0.0056835227
0.05447979 0.020105882 -0.05379786 0.012010769 0.031518117 0.07894609 0.07953803 0.008342419
0.19858319 0.13667458 -0.075532876 0.05538973 -0.11377725 -0.25622493 0.28292248 -0.20664404
-0.18899469 -0.076107755 -0.060947746 -0.1050622 0.01855142 0.003436534 -0.06197379 0.08994022
-0.01908011 0.03310895 0.13710277 -0.030343506 -0.036439985 -0.014575728 0.10326604 0.11571026
0.004247784 0.0618879 0.1476539 0.09647279 0.12556176 -0.05062941 0.06387653 0.04565209
-0.12073163 0.40334448 -0.18007417 -0.09203917 -0.0011033359 -0.049952026 -0.059651785 -0.021252587
-0.041687507 0.049998805 -0.096675225 -0.020670675 0.21327148 0.21635923 0.19467464 0.039461102
0.03266829 0.0132143395 0.016966777 0.068243526 0.14246783 0.019706322 0.031415112 0.11325873
-0.009648099 0.009368089 -0.010752938 -0.0855461 0.018556401 -0.0561975 0.024410106 0.1183553
0.030430853 0.07483933 0.019711763 0.18128748 0.102546535 0.07195463 -0.055845506 0.18669288
0.16781089 0.21101478 0.012767155 -0.079319604 0.039294727 0.005051925 0.17977484 -0.21370484
0.0315889 0.054414902 -0.033585846 0.11818306 0.07810672 0.14367689 -0.024348332 0.14423653
0.023619609 -0.018292075 -0.008385673 0.1313178 -0.07605362 0.052023362 0.015103977 0.02990323

encoder.2.bias f4 [16]
00000000: 72fb 16bc b93d 953d c0c0 f7bc df67 b53d
00000010: 3baa c0bd bcae 563d cbd9 fa3d d5c8 783b
00000020: 0187 f03d da3c 9cbc d2e9 8d3d b97e 1bbd
00000030: 6d29 113d 016f 813a ae99 f23c e202 3bbd
-0.009215223 0.07287163 -0.030243278 0.088577025 -0.09407469 0.052412733 0.12248572 0.0037961502
0.117445 -0.019071985 0.06929363 -0.03796265 0.035439897 0.0009875001 0.029614296 -0.045657046

encoder.4.weight f4 [32, 16, 3, 3]
00000000: 3ea2 953d 79f5 b83d eae2 663d 0e39 f93d
00000010: fae8 5a3d 4cb6 6a3d af65 973d 776e 033e
00000020: 2566 863d df47 bf3c 4aad 333d dd53 b13c
00000030: d668 d03d 56b2 e73c 766d 633c 0bd7 063e
00000040: 8d92 423d ca80 8d3c 7e49 84bd 3a36 49bd
00000050: 0c57 7bbd 7c8b 32bc 34ba 6d3d 16c6 423c
00000060: 29db 053e e7ac a83d ddd9 853d 9d3e f53b
00000070: e648 803b 9313 70bd 5b81 083c 6666 c43d
00000080: 8518 b73d d530 f83d 75a6 f7bc ae1b ed3d
00000090: cad9 9b3d c6fd 60bb 826f 933d 31be 203d
000000a0: fbf5 2a3d c7b8 1d3e 2122 013e 4b6d 263d
000000b0: 969d 1f3e 296f 09bd 09ff 06bd 0691 22bc
000000c0: f811 013e 8859 de3c e0c4 7bbc 0b2e f63c
000000d0: ed73 043d 01f5 033e c31d b43d 40d6 c03d
000000e0: b527 503c 8c54 d03d cf57 893d 3726 23bb
000000f0: 0d4a f43d 1185 e63d 98d4 9b3d 0d08 ebbc
00000100: c5a3 34bd 5c8a 863c fef1 8c3d bea4 a23d
00000110: 387d c03d 6de7 323e e2ad 473e 3330 263e
00000120: 50b2 8c3d f3e2 a73b 5d6b d7bd 151d aebc
00000130: 37ca c9ba 996b b7bd 4a71 3a3d d28d d43d
00000140: 0bae debc 589e 19bd 0cfd ef3c 1308 0a3d
00000150: a40a ff3d 8c7d 4c3d ae9b bb3c 561b a73d
00000160: 107c 493d 07cb 64bb 4c05 16bd 5714 be3d
00000170: 8f68 333c 9532 bf3d 5162 093c a9b5 e33d
00000180: e04d 1c3e 268c da3d 3e17 bf3d 2108 abbd
00000190: d826 533c 9376 743c 1d78 d73d 3542 653c
000001a0: d8f3 853c b53f a33d 87bd 41bd ff40 333c
000001b0: 0ad7 33bd f03c c73d 4a01 47bb 2f7b 84bc
000001c0: bbb4 6f3c 09ef 903c 7f48 db3c ddc1 7d3d
000001d0: f447 303d 9806 273d a459 fcbb 114f 0abd
000001e0: 2341 7c3d 4b6d b23d dfb3 f53a 03c7 8d3d
000001f0: 227e bf3c 677e 00bd 3a0a 16bb ccc7 77bd
00000200: a811 053d 4615 963c a6e2 48bd 95fb f7bb
00000210: 493c a63d 0515 4ebd 4491 39bd e8ea a83d
00000220: 698e 7dbc a09d 403d e990 d13d 3d27 c33d
00000230: 711a e93d bba2 193e 4d21 3b3d 4bd9 eb3d
00000240: 0c60 863d 8b46 b33d 1996 b03d ed45 be3d
00000250: 2a41 b33d 60a1 a63d c719 e73c 1eb6 c13c
00000260: 3b46 c7bc 48ba d23d 076d 18ba 181e a53d
00000270: 8107 e63d 3dc8 953d b003 aebc a773 8bbc
00000280: f55b f13d 47c2 ea3d 013e f0bc 15a2 8b3d
00000290: e9c0 4e3d e761 743d 93d3 b63d c6d8 f83d
000002a0: ddc6 793d 5c49 893d d826 f2bb 4101 22bd
000002b0: f9fc ae3d b008 a63d c9d9 12bd 8aa2 f3bb
000002c0: 5338 4cbb 151d 963d b462 c9bc a08d 0abd
000002d0: 5293 19bd 3c92 3d3d 714a a6bc 7e06 ee3d
000002e0: 4cc2 c43d 50c2 303e 6eed 9c3d b734 013d
000002f0: 9e15 0e3e 0cfd a83d e6c4 af3d d3cf 63bc
00000300: c2f6 f23d 1b8b 863d 35a9 8bbc da9c 92bc
00000310: f864 ba3d 130c 8a3d 0743 35bd de74 a2bc
00000320: 75b5 a43d cc27 013e cd32 a93c 6c66 0b3d
00000330: 0d95 593c 8b2c c93d 04f5 753c cfe5 b8bc
00000340: 5752 793d 7568 873d e101 3cbd 38d1 953d
00000350: 5967 103e b494 5c3d cdae 5c3e ab7b ee3d
00000360: 074f a53d e57d cb3d 31d7 8fbd 0b52 8e3d
00000370: 1cec db3c 442c a5bd d3a4 de3d c23b 1ebd
00000380: 843d 533d eaaf a53d e98d 233c 201f 363d
00000390: 9fc9 313d c012 1c3e 66c3 0fbc 3e55 343d
000003a0: 2e13 763d e277 973d 4af2 3d3d 9880 4f3c
000003b0: fab8 753d e789 e03d 023b 8e3c eb4a c63d
000003c0: 881d 453d 3159 a63d 3d0e 50bc fec1 333d
000003d0: b2c7 07bc b913 5c3d ec40 813d 98df 633d
000003e0: bda9 8abc ad23 74bd 299a 643c 08d5 d53d
000003f0: cf83 993d 2596 903d 6c2e e6ba e166 503d
0.07306336 0.09031195 0.056368746 0.121690854 0.05344484 0.057302758 0.073924415 0.12835108
0.06562451 0.0233497 0.043866433 0.021646434 0.10176246 0.02828328 0.013881078 0.1316797
0.047503043 0.017273325 -0.0645933 -0.04912398 -0.06136231 -0.0108975135 0.058038905 0.011888048
0.13071884 0.082361035 0.06535695 0.0074842707 0.00391494 -0.058612417 0.008331622 0.095898435
0.089402236 0.12118689 -0.03023074 0.11577545 0.07609899 -0.0034330948 0.07199003 0.03924388
0.04173849 0.15402518 0.12610675 0.040631574 0.15587458 -0.033553276 -0.032958064 -0.009922272
0.12604511 0.027142301 -0.015366763 0.030051252 0.032337118 0.1288643 0.08794739 0.09415865
0.012704779 0.10172376 0.06706201 -0.0024894604 0.119281866 0.11255849 0.076089084 -0.028690362
-0.044101495 0.016423397 0.06882094 0.07941578 0.093988836 0.17471094 0.19499925 0.16229324
0.06869948 0.00512349 -0.10518525 -0.021254102 -0.0015395348 -0.089560695 0.045518197 0.103786126
-0.0271826 -0.037504524 0.029295467 0.033699106 0.124532014 0.04992442 0.022901382 0.08159511
0.04919058 -0.0034911053 -0.036626145 0.09281223 0.010950222 0.0933582 0.008385257 0.11118633
0.15264082 0.106712624 0.09330605 -0.0835116 0.012887679 0.014920848 0.10520957 0.013992836
0.016351625 0.079711355 -0.047299888 0.010940789 -0.04390625 0.0972842 -0.0030365759 -0.01617202
0.014630492 0.017692106 0.026767967 0.06195246 0.04303737 0.040777773 -0.0077011157 -0.03376681
0.061585557 0.08712252 0.0018745622 0.06922724 0.023375574 -0.031370547 -0.002289428 -0.060493276
0.03248754 0.01832069 -0.049044274 -0.0075678327 0.08116967 -0.050313015 -0.04530455 0.0824793
-0.015475848 0.047025323 0.102327175 0.095289685 0.113819964 0.15003483 0.045686055 0.11516055
0.06561288 0.087536894 0.08622379 0.09290681 0.087526634 0.081362486 0.028210534 0.02364641
-0.02432548 0.102894366 -0.0005814586 0.080623806 0.112319 0.07313583 -0.021241993 -0.01702292
0.117851175 0.11462837 -0.02932644 0.06818024 0.050476942 0.05966368 0.08927073 0.12150721
0.060980666 0.06703445 -0.0073898844 -0.039551977 0.085443445 0.08107126 -0.035852227 -0.0074351477
-0.0031161502 0.07329766 -0.024583198 -0.03382647 -0.03749401 0.046282038 -0.020299168 0.11622332
0.09607372 0.17261624 0.076624736 0.031544413 0.13875434 0.0825139 0.08582477 -0.01390453
0.118634716 0.06569501 -0.017048458 -0.017897058 0.091012895 0.06740584 -0.044253375 -0.019831117
0.08042423 0.12612838 0.020654107 0.034033224 0.013280165 0.09822949 0.01501203 -0.022570519
0.06086954 0.066117205 -0.04590023 0.07315296 0.14101924 0.05385275 0.21551056 0.116446815
0.08071714 0.09936122 -0.070234664 0.06949242 0.026845984 -0.080650836 0.108712815 -0.03863121
0.051572338 0.080901936 0.0099825645 0.044463277 0.04340517 0.15241528 -0.008774614 0.044026606
0.060076885 0.07395913 0.046373643 0.0126649365 0.05999086 0.10963803 0.017362121 0.09682258
0.048123866 0.08122481 -0.012698707 0.043886177 -0.008287357 0.053729746 0.06311211 0.055633157
-0.01692664 -0.059604336 0.01395277 0.10441023 0.074958436 0.07059888 -0.0017561442 0.050879363

encoder.4.bias f4 [32]
00000000: 3de3 043d 6108 9a3d bc69 05bd 0e00 4a3d
00000010: e804 843c f0bd f5bc 733c fc3c 062d 263d
00000020: af8a a73d 9e3f 6c3b 47e5 1b3d f981 923d
00000030: c58a 8dbb 7d85 c4bc 5e54 313d 0a9f 9c3d
00000040: be16 33bd bf91 90bd 23aa 70bd 23bf 55bc
00000050: 9013 08bd 72c6 a73b cb52 e1ba 67f0 8dba
00000060: d27d 71bc 360e 923d bc7b 913d f353 fa3b
00000070: 1f5c 773d 5ce4 613d 9e05 2dbd 2b26 ef3b
0.032443274 0.075211294 -0.03257154 0.04931646 0.01611562 -0.029997796 0.030790543 0.04057028
0.08180749 0.003604866 0.038060453 0.071536966 -0.004319521 -0.023989433 0.04329335 0.07647522
-0.04372286 -0.07059049 -0.058756005 -0.013046059 -0.03322178 0.005120092 -0.0017190812 -0.0010829092
-0.014739471 0.07131617 0.071036786 0.007639402 0.060390588 0.05514942 -0.042241685 0.007298251

encoder.6.weight f4 [64, 32, 7, 7]
00000000: 3b87 2dbd 9c12 d7bc 8593 56bd f2af 41bd
00000010: d4d5 42bd fdf1 d9bc a3fc b13b 8ffe 80bd
00000020: 3dcc 81bd ed76 3dbd d0ac 66bc cf96 b93b
00000030: a878 d9bc 2844 503c 9618 90bd 429f babd
00000040: ca7a 9fbc 031c 27bb 170d 1cbc 129a 9abc
00000050: aa75 9abc 1f2d e0bd 3752 e0bd 9aff 23bd
00000060: 4053 01bd f590 bb3a c605 82bd 9e19 52bd
00000070: 5499 eabd a15e c4bd dbc4 c8bd 673f 07bd
00000080: 82ae 37bd d014 c5bd 1514 a6bd b52d 18be
00000090: 8943 d9bd fe5c afbd 609c 13bd 886f 6cbd
000000a0: 027e aebd a0c7 88bd 1c68 c2bd c252 77bd
000000b0: b94b 13bd 470e 34bd 152a 2cbd 3ef0 97bd
000000c0: 0bb6 78bd d22a 20bd 3897 42bd 79bd 4ebd
000000d0: 22e3 55bd 1e82 053b 8044 a7bc 817c 71bc
000000e0: 8010 21bd fd7e e7bc 6671 c5bb d847 9abc
000000f0: 0963 85bc a229 03bc c589 d03c 6b3a 7fbd
00000100: c411 53bd 7f29 6fba 3a5d e7bc 004e 143c
00000110: 21b2 5eba be77 0bbd f16f babd 7266 cdbd
00000120: 330a 1abd da73 a33c 61fd 3b3c 944b 38bd
00000130: e7b7 96bd bc4c 04be 64d3 e4bd 490c a1bd
00000140: b366 2cbd 0541 59bd 7a2c 8abd 725a afbd
00000150: a5ea 08be 3a50 bfbd 4daa 3bbd 4d76 13bd
00000160: 2410 16bd ede7 87bd a27d 47bd bbf8 d2bd
00000170: 4af6 b4bd 2825 34bc d806 5aba ae74 0bbd
00000180: 771a 8cbd e738 21bd 3871 853c 98fa c9bc
00000190: 73bd 20bc 317e 64bd e2a2 18bd b93d 193c
000001a0: b8ab 003d 50ae c2bc 7818 0f3c 6d01 8abc
000001b0: 32b8 8dbb 3fbf 0cbd da9c d6bc 8940 a3bc
000001c0: 130a 3cbd 3e24 b7bc 941b 04bc 4ee8 17bc
000001d0: 0a23 9bbc 6e12 febc b061 21bd b83f 9bbd
000001e0: 502e 6abd 10d3 08bc 1396 843c d5a7 44bb
000001f0: 2a21 22bd 4272 82bd 587d 10be db57 91bd
00000200: 5b7e 29bd bdd2 823c 1004 93bc 8c09 81bd
00000210: a7f2 c2bd 1f79 e0bd a775 babd 742e 1fbd
00000220: 91d9 e4bc 322d 58bc f92e 17bd 0023 84bd
00000230: e70d c2bd ad27 45bd 0c2e dfbb 2cab df3c
00000240: d90c bc3b 2794 22bd f5ce 0fbd 5b05 a83c
00000250: f169 f43c 8b9d 04bc cb18 f2bb 05f5 863c
00000260: e332 283a 1495 c83c 7967 7d3d 4d34 733d
00000270: ae93 933c 7e0d 8e3c 0e0e 183d 15dc 3fbc
00000280: 4a41 04bd 31db 883d 8b8b 463d a115 9f3d
00000290: 5f36 e23d be05 2f3d 14e1 84bc 52c6 67bd
000002a0: f4e3 a23b f5b4 133b 2dc0 bd3d bf3e b43d
000002b0: b72a 523d bdfd b8bd 5033 0abe 0ed7 99bd
000002c0: 683f 09bd 7a93 c73c 04a0 903d 217f 9c3c
000002d0: 7ada c2bd d391 22be 9529 b4bd 923e 86bd
000002e0: 572d 353d 55a8 2f3d 24d8 19bc 22c3 c9bd
000002f0: 18ff febd 02cf 4dbd f6b7 d2bc 143a 623d
00000300: 1073 4b3d a70d 603c 65e0 a9bd 746d 06be
00000310: 4f70 7abc ab93 1dbd 0e05 83bd d1cb 74bd
00000320: 5086 353b 349a cabc 7231 b43c a374 27bd
00000330: 5e91 46bd 3dc0 64bd c1c9 e1bb f051 243c
00000340: 67be a9bc d1e3 d13c a713 9abd 5566 7ebd
00000350: ec61 1abd a1d4 29bd 9a7a 883a aa43 15bd
00000360: 63b9 bbba 9112 f4bd 7ac3 e8bd bcf6 22bd
00000370: ffb8 8e3b a0cf 16bc a74e 4cbd b774 2ebd
00000380: 14ed 10be 8f67 fbbd 8331 bebd e146 a4bc
00000390: 7242 3dbd 56f8 a1bd 0d19 c8bd f896 f8bd
000003a0: f00b bbbd bd9c 77bd 2932 7abd 6ba1 64bd
000003b0: d61d aabd 582d c0bd 1020 e4bd 3ffd a5bd
000003c0: e951 28bd 7d27 ffbc 5d7e 83bd 1635 80bd
000003d0: ecb8 e5bc 0e72 6a3d 47ba 133d 314b 3c3d
000003e0: d1c0 6cbc 6cae d73c bf20 493c 655e be3c
000003f0: 1a8d 883d 2df7 013d 64a9 3a3d 5082 223c
-0.042365294 -0.02625399 -0.05238678 -0.047286935 -0.047567204 -0.026604647 0.005431728 -0.06298553
-0.063377835 -0.046255995 -0.014079288 0.0056637297 -0.026546791 0.012711562 -0.070359394 -0.09112407
-0.01946773 -0.0025498874 -0.009524605 -0.018872295 -0.018854935 -0.10946106 -0.10953181 -0.040038683
-0.031573534 0.0014310168 -0.063487574 -0.05129396 -0.11455026 -0.095883615 -0.09803172 -0.03301945
-0.044844158 -0.0962311 -0.08109299 -0.14861186 -0.106085844 -0.08562659 -0.036037803 -0.057723552
-0.08520128 -0.066787004 -0.094925135 -0.06038166 -0.035960887 -0.04395893 -0.04203232 -0.074188694
-0.060720485 -0.039103337 -0.047507495 -0.050473664 -0.052218564 0.0020371745 -0.020418406 -0.014739157
-0.039322376 -0.028258795 -0.006025481 -0.018833086 -0.016282575 -0.0080055315 0.025456319 -0.06231157
-0.051530614 -0.000912331 -0.028242696 0.0090518 -0.0008495171 -0.034049742 -0.091033824 -0.100293055
-0.037607383 0.019952703 0.011473984 -0.044993952 -0.07359295 -0.12919897 -0.11173132 -0.07863671
-0.04209013 -0.053040523 -0.067467645 -0.08562173 -0.1337076 -0.09341474 -0.04581671 -0.036001492
-0.036636487 -0.06636033 -0.048703797 -0.10301348 -0.088360384 -0.010995187 -0.000831706 -0.03404682
-0.06840985 -0.039360907 0.016289338 -0.024655625 -0.009810793 -0.055784408 -0.037264712 0.009353095
0.031413764 -0.02376476 0.008733861 -0.016846383 -0.0043249363 -0.034362074 -0.02619784 -0.019928234
-0.045908045 -0.022356149 -0.008063216 -0.009271694 -0.018937606 -0.031014647 -0.039399803 -0.07580513
-0.057173073 -0.0083511025 0.016184842 -0.0030007262 -0.03958241 -0.06369449 -0.14110315 -0.07096835
-0.041380268 0.015969628 -0.017946273 -0.06300649 -0.095189385 -0.10960602 -0.09104472 -0.03886266
-0.027935775 -0.013194369 -0.03691003 -0.06451988 -0.09475308 -0.04813354 -0.006810909 0.0273033
0.0057388362 -0.03969207 -0.03510948 0.020510366 0.029835673 -0.008094202 -0.0073882095 0.016474256
0.0006416274 0.024485148 0.061866257 0.05937605 0.018014755 0.017340418 0.03712278 -0.0117101865
-0.032288827 0.066824324 0.048472922 0.07767797 0.11045527 0.042730086 -0.016220607 -0.056585617
0.004971022 0.0022538279 0.0926517 0.0880103 0.051310267 -0.09032772 -0.13496137 -0.075117216
-0.033507735 0.024362314 0.070617706 0.019103589 -0.09514327 -0.1587594 -0.08796994 -0.06554903
0.044232693 0.042885143 -0.009389911 -0.09851672 -0.12450999 -0.050246246 -0.025722485 0.05523117
0.04967028 0.01367513 -0.08294753 -0.1312769 -0.0152855655 -0.038470905 -0.063974485 -0.059764687
0.0027698465 -0.024731733 0.021996234 -0.040882718 -0.048478477 -0.055847395 -0.006890506 0.010029301
-0.020720674 0.025621327 -0.0752328 -0.06210931 -0.03769104 -0.041462544 0.0010412515 -0.036441483
-0.0014322217 -0.11917604 -0.11365409 -0.039786085 0.0043555493 -0.009204775 -0.049879696 -0.042591777
-0.14152938 -0.122756116 -0.09286787 -0.020053329 -0.046205945 -0.079086944 -0.09770403 -0.1213817
-0.09133136 -0.06045221 -0.061082993 -0.055818003 -0.08306472 -0.09383649 -0.11138928 -0.081049435
-0.04109374 -0.03114676 -0.06420586 -0.06260125 -0.02804228 0.057237677 0.03606632 0.045970146
-0.014450268 0.026328288 0.012275874 0.02323837 0.06667538 0.031729866 0.0455717 0.009918764

encoder.6.bias f4 [64]
00000000: 894d 86bc 6e18 0e3d a982 523b aee0 033d
00000010: 3ac1 cabc 4aea 71bd bab0 4a3a e3e8 4ebd
00000020: 0f62 e33b df8e 21bd aaec 273d 57db d53c
00000030: 31d5 d5bb b9f7 01bd afb1 5c3c 11d5 82bd
00000040: 129c 5b3a f40b 483c 0469 c5bc cddd 213c
00000050: 5a51 0a3d 3f65 083c 6905 803c 2853 67ba
00000060: ed76 023c 8592 1c3c 8088 5bbc 85bb df3b
00000070: d79c b3bb 84ff f53b ec78 293c 8996 383d
00000080: d093 f4bc bfd7 9b3c ffbc 083d b6c8 d9bb
00000090: 545d 773c c240 ecbc cd44 b539 cbeb c3bc
000000a0: bb50 223c 5dc8 073c dd09 1dbd 5130 433c
000000b0: 82a8 0bbc 4ccc 8b3c 2ce5 033c 184b 06bd
000000c0: 3b56 6d38 ceb2 7cbd e679 b63c 79de 09bd
000000d0: d272 51bc c445 a63c 9c7a e63b bc4b d13c
000000e0: c420 37bc 67b7 143c 19ee 6fbc df67 19bd
000000f0: 29aa 6dbc afe0 41bd ab08 11bd 0864 1ebd
-0.016394394 0.034691267 0.0032121337 0.032196693 -0.02475034 -0.059061326 0.0007732023 -0.050515067
0.0069391797 -0.039442893 0.040997185 0.026105566 -0.0065256585 -0.031730387 0.013470097 -0.063882954
0.00083774433 0.012209881 -0.024097927 0.009879542 0.03376899 0.00832492 0.01562758 -0.0008824342
0.007962924 0.009556417 -0.013399243 0.006827774 -0.0054813433 0.0075072665 0.010343771 0.045065437
-0.029855639 0.019023774 0.033383366 -0.006646241 0.015097935 -0.028839473 0.0003457427 -0.023916146
0.009906943 0.008287516 -0.038339484 0.011913375 -0.008524062 0.01706519 0.008050244 -0.03278646
5.658551e-05 -0.06169396 0.022274923 -0.033659432 -0.012783723 0.020296939 0.007033659 0.025548808
-0.0111772455 0.00907693 -0.014644169 -0.037452575 -0.014505901 -0.047333416 -0.035408657 -0.038669616

decoder.0.weight f4 [64, 32, 7, 7]
00000000: ed4d 42bc 3e3b 67bc ed97 b73c 9b92 9abc
00000010: ed7c b53c 3be2 593c cc17 a3bb e9e4 873c
00000020: 7b8a d13c 2fdf 443c 77ca 4fbc d8c7 dd3c
00000030: 8035 43bd bae7 8abc c0a8 c03c 336b 313c
00000040: 665a 553c 3e00 3d3a 4c21 80bc 56d8 893c
00000050: ba2b 9e3c a950 35bd dd88 9dbb 1ee5 a2bc
00000060: cfe7 76bb 67ee bfbc 25db 833c 8a25 4138
00000070: 8c20 28bc bb83 3abb 9fba dc3c 2e7d 18bc
00000080: f3c9 c6bc 099f 813b e63c 80bc 7577 bc3c
00000090: 46a1 4bba be72 863c 276a 18bc 1080 cbbc
000000a0: 9773 e1bb 45f8 b43c 527c aebc dfc3 91bc
000000b0: 6001 0d3b 7781 7bbc 871b 98bc 4673 f33c
000000c0: 3531 303c 4219 8d3b 59dd e6bc c042 a93c
000000d0: ed2f b53c 783f d3bc 6636 8abc dad9 66bc
000000e0: faa0 27bd 6343 37bd cd78 96bc e203 39bd
000000f0: 68c8 8a3a 34eb cdbc f8f4 f0ba d506 82bb
00000100: 78cb 9dbc 8f03 54bc 32ee 933b 11fd a73c
00000110: d961 c8bc 8d7b aebc df90 293c afdf ffbc
00000120: 8ecc 8ebc 1f8c b9bc 7606 e03b 95d0 e4bc
00000130: dc01 0bbd 390c c1bc 1442 c7bc 3092 5ebb
00000140: 00f7 2bbc 73dd b3bc 936c 283b efab 323c
00000150: 47fd 7b3c 2738 8d39 902c 41bc 56a4 41bd
00000160: 46ce 933b ecfe 02bd a80b 01bc ec0c 4cbc
00000170: 5bda 453b c0bd eebb 51d7 62bd b338 193c
00000180: 133b ffbc dfc7 4dbd f3a9 1fbd 5616 c1bc
00000190: 142d 1dbd cbcd 543c bd50 b43c 863a 14bc
000001a0: f0e6 2cbd 4cb7 e13b 1c4f 13bd 3dcb d2bc
000001b0: 8ddf cdbb 1e72 b53c e4c4 603c 43a8 54bc
000001c0: e5d2 55bc 0ac2 07bd bd34 babc 4839 ad3c
000001d0: 7505 6dba 860d f43c 42e7 44bc a98d bbbc
000001e0: 6cd8 65bc ea0c 873c 0ced 973b 5d52 1ebc
000001f0: 8951 b8bb a0ec 7bbb 3487 a9bc 1829 02bc
00000200: 2cd0 30bc 544f babb f0ba e13b 85cd 96bc
00000210: 03cf 3d3c 747b 423c 2c7e 0fbc a62c 6fbc
00000220: 60e8 9b3c a71a d03c 5ec4 2ebc 4c18 673c
00000230: 47fe 163a 4e02 56ba 525f b0bc adfb 3a3b
00000240: db06 09bb 0765 6f3c 4eb5 db3c 7a7e d33c
00000250: 5d16 0dbc 9e5d 3a3c c1d1 d7bb fe6e 7b3c
00000260: 4733 ca3c 1780 943b 9c7d b8bc 9dcf f43b
00000270: a65d 9a3c e44e adbc 0ab3 8bbc 4ed9 b3bc
00000280: 85b2 953c b45e dfbb b172 14bd dfcf ed3b
00000290: 0759 63bb 2d06 873c 8a20 133c b50d 4b3b
000002a0: 8fd7 15bc ee6b 96ba b3fa 0bbd 00a8 15bd
000002b0: 4664 883c 8859 8b3c ab12 823c 65a6 cc3b
000002c0: 709f 79bb cffc a8bb 6cc3 a1bc fa69 2d3c
000002d0: af8e bebc 176e 98bb d8b1 833c c6ca 913c
000002e0: ee95 6abc 0154 213c 330b b53c 6777 0e3a
000002f0: 6ef1 3fbc e491 b9bc 5c10 cc3c 706a 063b
00000300: 4e5c 4b3c 109e a3bb e21d babb a6d6 163c
00000310: 5515 96bd 38cb 6bbd 0a26 35bd c7fd 26bd
00000320: 9068 07bd 6415 5cbc be83 4cbc 3029 47bd
00000330: 17a8 aebd d23a dfbc d94b 2bbc 671f 20bd
00000340: 6bac 9c3b 168f a6bd 204d 67bd 9a87 6dbd
00000350: 9029 2cbd 57cc 43bd 86e9 67bd 69bc f6bc
00000360: 90fd 03bd 034a f4bb 2531 56bd d421 9d3c
00000370: cea1 00bd f5f3 22bd ba97 1fbd c0aa 09bc
00000380: cf40 c9bc 2d2d ebbc d11f 6bbb 61d0 5abc
00000390: 2433 98bc 7b3e edbc 2044 2e3c c6bc 40bd
000003a0: d992 a5bc 475e aabb 0bbf 33bc 1931 2abd
000003b0: 9839 c0bc b508 d1bc fc61 2f3c 87c9 eabb
000003c0: 81bb 9c3b 10cf c7bc e1df 00bd 5595 93bc
000003d0: 2e15 0abd df5a b3bc 3de0 17bc 1aaa 81bc
000003e0: 9a85 f93a b69f 0d3b 953e 09bc 998e e3b9
000003f0: 0e67 b23a 1f93 a2bb dcb1 4cbd 5428 e0bc
-0.011859399 -0.0141132455 0.022411311 -0.018868735 0.022154296 0.013298566 -0.004977202 0.016588645
0.025578728 0.012016102 -0.012682549 0.027072832 -0.047658443 -0.016956199 0.023517966 0.010828781
0.013022041 0.0007209814 -0.015640877 0.01682679 0.01930796 -0.044266377 -0.004807575 -0.019884642
-0.003767479 -0.023429109 0.016095707 4.6049747e-05 -0.010261666 -0.0028459865 0.026944457 -0.009307189
-0.024266219 0.003955726 -0.015654039 0.02300618 -0.0007767867 0.016412135 -0.009302652 -0.024841338
-0.0068802345 0.02209104 -0.021299515 -0.017793594 0.0021515712 -0.015350691 -0.018567814 0.029718053
0.010753919 0.0043059895 -0.028181719 0.020661712 0.02211758 -0.0257871 -0.016871642 -0.014090026
-0.040925004 -0.044742 -0.01836815 -0.04516972 0.001058829 -0.025136568 -0.0018383553 -0.0039680996
-0.01926206 -0.012940302 0.004514479 0.020506414 -0.02446072 -0.021299148 0.010349481 -0.03123459
-0.017431524 -0.022649823 0.0068367077 -0.02793149 -0.03393732 -0.023565399 -0.0243235 -0.0033961646
-0.010495901 -0.021956181 0.002569948 0.01090525 0.01538021 0.00026935452 -0.01179041 -0.047275864
0.0045106737 -0.031981394 -0.007876314 -0.012454253 0.0030189964 -0.0072858036 -0.055381123 0.009351897
-0.031156098 -0.05023944 -0.038980436 -0.02357022 -0.038373068 0.012988518 0.022011155 -0.009047156
-0.042212427 0.006888306 -0.035964116 -0.025731677 -0.006282753 0.022149142 0.013718817 -0.01297957
-0.013050769 -0.033144034 -0.022730226 0.021145478 -0.00090416457 0.029791605 -0.012018027 -0.022894697
-0.01402865 0.01648565 0.0046364125 -0.009663192 -0.005624954 -0.00384406 -0.020694353 -0.007944368
-0.01079182 -0.005685726 0.0068887398 -0.018408546 0.011585 0.011870254 -0.008758109 -0.014598047
0.019031703 0.025403334 -0.010666935 0.014104914 0.0005759936 -0.00081637956 -0.021529827 0.0028531358
-0.0020908627 0.014611489 0.026819851 0.025817145 -0.008611289 0.011374859 -0.006586284 0.015346287
0.024682654 0.004531871 -0.022520833 0.0074710385 0.018843483 -0.021155782 -0.017053146 -0.021954205
0.018273601 -0.0068167094 -0.03624219 0.007257446 -0.0034690516 0.016482437 0.008979926 0.0030983512
-0.009145631 -0.0011476257 -0.034174632 -0.03653717 0.016649377 0.017010465 0.015878042 0.0062454217
-0.0038089417 -0.0051570903 -0.019746505 0.010584349 -0.023261396 -0.0046517956 0.016076013 0.017796885
-0.014317973 0.009846688 0.022100067 0.00054346625 -0.011715276 -0.022652574 0.024910145 0.002051022
0.012412144 -0.0049932078 -0.005679832 0.00920645 -0.073282875 -0.05756685 -0.04422573 -0.040769365
-0.033058703 -0.013432834 -0.012482582 -0.048623264 -0.08528154 -0.027249727 -0.010455095 -0.039092448
0.004781296 -0.0813276 -0.056470037 -0.057990648 -0.042031825 -0.047802296 -0.05661919 -0.030119138
-0.032224238 -0.007455112 -0.05229296 0.01918117 -0.03140431 -0.039783437 -0.038963057 -0.008402526
-0.024567036 -0.028708065 -0.0035877118 -0.013355345 -0.018579073 -0.028960457 0.010636359 -0.04705503
-0.020211624 -0.005199227 -0.010970841 -0.04155073 -0.023464963 -0.025516847 0.010704514 -0.007165137
0.0047830944 -0.024390727 -0.031463508 -0.018015543 -0.033711605 -0.021893917 -0.009269771 -0.015828181
0.0019037009 0.0021610088 -0.008376737 -0.00043403057 0.0013611035 -0.004961386 -0.049974307 -0.02736298

decoder.0.bias f4 [32]
00000000: 9a22 943b f484 7f3c 65ab 133b 5f15 9e38
00000010: b492 c83c b0e2 303c 741c 5f3c e707 92bc
00000020: e40a fbbc 7259 ce3c 2aaa 5f3c 1d83 883d
00000030: b13f e83a e0e8 ca3c 5481 913c e314 6c3c
00000040: fa4a e93b f1d2 94bc f3f1 b5bc 0d5b af3a
00000050: b281 af3c 6fea 743b 7a9d 8d3c fdad aa3c
00000060: 95ed bcbc 1c44 6dbc fabb e03a 2343 3bbd
00000070: bb55 fbbc 65d1 373c a1b4 c53c 82db 4fbb
0.0045207264 0.015595663 0.002253258 7.538008e-05 0.024484016 0.010796234 0.013617624 -0.017826034
-0.030644841 0.025189135 0.01365141 0.06665633 0.0017719177 0.024769247 0.017761864 0.014409277
0.0071195336 -0.018166991 -0.022210097 0.0013378576 0.021424148 0.0037371179 0.017287005 0.020834917
-0.023062507 -0.014481571 0.0017145865 -0.045718323 -0.030680528 0.011219357 0.024133982 -0.003171653

decoder.2.weight f4 [32, 16, 3, 3]
00000000: 17d8 0dbd 717b 31bd 11c8 c63b 3583 b33d
00000010: ebdb ba3d aeed 3abd b167 c43d 8710 113c
00000020: be64 c7bd c792 4a3d f34a 77bd 0741 9f3d
00000030: 09bb 96bd d222 113d 9142 af3c 5662 18bd
00000040: fdf7 bf3d 9a74 7fbd 4352 86bd 815e 8dbc
00000050: fd71 f0bc 4df8 283d 6f88 21bd e9ef 5cbd
00000060: 7d10 b3bc a153 05be 9250 b4bd 2a54 da3c
00000070: 518d cd3d a44e a83b a507 25bd 789c bd3d
00000080: 1076 1cbd cce6 8e39 f8ea 143d af9d 28bc
00000090: 413e e83d 4576 cf3d 9bbb bb3c bd40 363d
000000a0: 9a01 ad3d 813e ee3c ad53 d7bd d6ae 9a3c
000000b0: 7357 6dbd a241 82bd 2ec1 55bc cc7e 2ebd
000000c0: bac1 8d3d db24 c13d 6c27 d83c 0544 0abd
000000d0: 8a4e 55bd e078 49bd f49a 003c d986 d23d
000000e0: 93b5 af3d 382b 913d 3f59 cf3d 1325 af3c
000000f0: 24aa f73c 409e 423d 3cf2 eabc fb15 52bd
00000100: ab89 be3c 1b32 7dbd 42d7 9abd 2057 debc
00000110: 686f 763d 0b28 01bd f15d 2cbd 3f2a 9dbd
00000120: f37e 5e3c 8fd4 7e3d cc65 de3c 46a2 093d
00000130: d458 dfbb e083 993c 5fcd c53d 6640 643d
00000140: aeca 01bd 6462 7fbd 066b 7f3b dc6c 0f3d
00000150: 3fcf 0fbd 0fa0 10bd 0aaa 49bd f1d3 d73d
00000160: d204 66bd 7dbd c83d 1f98 0ebc 9c45 9e3d
00000170: ef27 083d abb5 cbbd 45b4 87bd 0ea4 a3bd
00000180: 592d cdbc a14b dbbc 27f2 78bc fde5 99b9
00000190: 0d79 75bd d20c 0bbd f363 533d 6621 5dbc
000001a0: b484 5b3d f513 583d 77b9 dfbc ea76 6e3d
000001b0: 0464 72bd 7699 623d 385e a93d 0363 71bc
000001c0: f88c b53c 821f 8fbd a290 73bd 9d2f 8a3d
000001d0: 09e8 21bd 4060 863d 4a2a 8e3c c61b 31bd
000001e0: 8b81 63bd 291c b5bd d372 8e3c 88d3 8d3d
000001f0: 8e63 5cbd 96cf a3bd 1290 17bd a9c4 febc
00000200: 8ff9 33bb 1c4e 2a3d 5ed1 9abd 5f02 8f3b
00000210: f1a6 3dbd 41a8 d9bd 47ab d83b 5a64 89bd
00000220: 9710 2e3d 48c5 d8bb 83f7 b3bd c584 66bc
00000230: 07d9 1fbc 064c 773d 9297 66bd 2d2f 033e
00000240: b7ad 23bd cad3 57bd 040a bc3d dfbd 1c3d
00000250: aaf7 24bd 6884 cebc 3654 b43d c5b5 923d
00000260: e7fb 233d 5161 06bc ef70 8f3d e259 7b3d
00000270: ebff 863d 649c 9c3d fa7f cd3d 88ef 8abc
00000280: 9156 91bc 8637 e03a d9bb aabc 01b0 bfbb
00000290: 19a7 49bd 617b d1bb 3bcf 38bd 2a55 ee3c
000002a0: ac9f cd3c 21c6 803d 97d2 80bd ea31 b0bc
000002b0: f4cb 88bb aed6 95bd 3e2a 56bd d497 b4bc
000002c0: d8ff 51bd ecd4 653c e134 e43c 3577 633d
000002d0: f0c2 e23b 065d 92bd 623b ad3c 74de 9d3d
000002e0: c480 183d bb7f 1cbd 945f 4abd 31c9 6fbc
000002f0: 7dca aabd 69eb 033c d441 043d c4da 3fbd
00000300: 4bf6 c8bd 9394 953d 08fc 11bd 9bfa 56bd
00000310: b043 0ebc 6b16 66bb 55d3 3dbb b68f cb3d
00000320: 7613 383c 0f64 cfbc a459 ef3d 7a3d f53c
00000330: 3577 313a 59e4 e93d 2484 543d aa22 1dbd
00000340: eda9 95bd 504e 453d 4650 35bb e308 803d
00000350: ac01 8a3c 7267 533c 6eca 2abd 1c40 51bb
00000360: 806a 0f3d 3bc5 1b3d 4c5b 7c3d 86d4 733d
00000370: 7dde b4bc 83b5 8bbc 18e3 edbb b977 d0bc
00000380: edb9 3f3d 62f3 f0bc f2ae 1fbd 32ce 5a3d
00000390: 0236 613a ace0 30bd 2ca9 833c b182 9ebd
000003a0: 05a4 8e3d db00 a2bd 0cf7 9fbc ec15 373b
000003b0: b83e 02bd 58b7 963c eef7 553d d3f3 9c3d
000003c0: f06c 38bd f3f8 50bb eb31 c63c 7eb3 1ebd
000003d0: 5067 853d 35f4 113d e6d6 90bd 730a 833d
000003e0: 79d0 aebd f49e 9f3c e7f8 a0bd 4d9b 9bbd
000003f0: 9d81 b9bd 792e da3c 35f4 f9bc 821d b5bd
-0.034629907 -0.043330614 0.0060663302 0.0876526 0.09123977 -0.045636825 0.0959009 0.008854038
-0.09736012 0.049456384 -0.06037421 0.07776075 -0.07359893 0.035433598 0.021394046 -0.037203155
0.09373472 -0.06236706 -0.06558659 -0.017256977 -0.029351229 0.041252423 -0.039436754 -0.053939734
-0.021858448 -0.13020183 -0.0880443 0.02665146 0.100367196 0.005136328 -0.040290494 0.0925836
-0.03819853 0.00027256308 0.036356896 -0.010291501 0.11339999 0.1012998 0.022916606 0.044495333
0.08447571 0.029082539 -0.10514007 0.018882196 -0.057944726 -0.06360175 -0.013046546 -0.04260139
0.06921716 0.09430858 0.026385985 -0.033756275 -0.052076854 -0.04918754 0.007849444 0.102796264
0.085795544 0.070883214 0.10124444 0.021379983 0.030232497 0.0475142 -0.02867996 -0.051290493
0.023259005 -0.061815362 -0.075605884 -0.027141154 0.06016484 -0.03153233 -0.042081777 -0.076740734
0.013580072 0.06221443 0.02714815 0.03360202 -0.006816009 0.01873964 0.09658312 0.055725478
-0.03168743 -0.062349692 0.0038973703 0.035015926 -0.035109755 -0.035308894 -0.049234428 0.105384715
-0.05615694 0.09801767 -0.008703261 0.07728121 0.03324121 -0.0994676 -0.066261806 -0.07990275
-0.025046038 -0.026769461 -0.015194452 -0.0002935379 -0.059929896 -0.033947773 0.05160899 -0.013496732
0.053593352 0.052753408 -0.027310116 0.058218874 -0.059177414 0.055322133 0.08269924 -0.014733079
0.022161946 -0.069884315 -0.059464104 0.06747363 -0.039527927 0.06561327 0.01735415 -0.043239377
-0.055543464 -0.08843262 0.017388737 0.06925112 -0.05380588 -0.07998578 -0.03700263 -0.031099634
-0.002746198 0.041578397 -0.07559465 0.0043642963 -0.046301786 -0.10627795 0.0066122147 -0.06708594
0.04249629 -0.0066153146 -0.087874435 -0.014069741 -0.009756333 0.060375236 -0.056296892 0.12810965
-0.03996059 -0.052692212 0.09181598 0.038267013 -0.040275253 -0.02520962 0.088051245 0.07163576
0.040035155 -0.008201913 0.07003962 0.061365016 0.06591781 0.07647017 0.10034175 -0.01695992
-0.017741473 0.0017106391 -0.020841526 -0.0058498387 -0.049231622 -0.0063928817 -0.045119505 0.029093344
0.025100552 0.0628779 -0.06290167 -0.021508176 -0.0041747037 -0.073163375 -0.05228638 -0.022045054
-0.051269382 0.014027815 0.027857246 0.055533607 0.006920211 -0.07146649 0.02114648 0.07708445
0.037232175 -0.03820775 -0.049407557 -0.01463537 -0.08339403 0.008051732 0.03228934 -0.04683949
-0.09812602 0.07303729 -0.035640746 -0.05248509 -0.00868313 -0.0035108577 -0.0028965075 0.0993952
0.011235109 -0.025316266 0.116870195 0.02993654 0.00067697774 0.11420507 0.05188383 -0.038363136
-0.073078014 0.048170388 -0.0027666255 0.06251695 0.0168465 0.012903081 -0.04169696 -0.0031929081
0.035013676 0.03802989 0.061610505 0.05952885 -0.022078747 -0.017054325 -0.0072597377 -0.025447713
0.046808172 -0.029412929 -0.0389852 0.0534193 0.00085911166 -0.043183014 0.016071878 -0.07739771
0.06964878 -0.079103194 -0.01952698 0.002793665 -0.031798095 0.018397972 0.052238397 0.07663693
-0.045025766 -0.0031886667 0.024193725 -0.038745396 0.06513846 0.035633285 -0.070722386 0.063984774
-0.08535857 0.019484974 -0.07859974 -0.07597981 -0.09057925 0.026633488 -0.030511955 -0.08843519

decoder.2.bias f4 [16]
00000000: bf38 87bd b6c7 87bc 0ab5 893d 3bee 87bc
00000010: c8ca 103d 3d7c f9bd 45c7 273d 3c06 b33c
00000020: 7c3d 863d 702c 203c f614 9e3b ca34 783d
00000030: ad84 7b3d 81c3 f73b 4cf8 963d 67d7 453d
-0.0660262 -0.016574722 0.067239836 -0.01659309 0.035349637 -0.121819 0.040961523 0.021853559
0.06554696 0.00977622 0.004824276 0.06059722 0.061405826 0.0075611477 0.073715776 0.048301127

decoder.4.weight f4 [16, 8, 3, 3]
00000000: edff ec3d 93bb 493d 5ee8 a53d b277 883c
00000010: 06d2 2f3d 7db1 29bd fc88 9e3d fc01 643d
00000020: ee15 ddbd 8c4a dabd bbe7 8fbd dd9d 263d
00000030: 6dfd 443b b55f 37bc 428e b43d 5a24 413d
00000040: 8d65 9b3d c5bb b43d c1f2 e53d 36d8 05bc
00000050: 1a8c 88bd 333c aebd e23c ed3d c3a4 b4bd
00000060: 2288 043d 82cf 9abd 5e93 eabd 222a a13d
00000070: 4054 4fbd cb5f 97bd 1a39 c53c 4632 06bd
00000080: 4ea9 07bd fada 223d 0b2c 263d accf e23c
00000090: f452 d13d 51b7 b53c 4901 4cbc 0c0d 673c
000000a0: 2c0f 933c 78de 62bd 77b6 923d 2a8a ef3d
000000b0: 1ee4 e03d 2a73 113d 35dd e23d fbbb 46bd
000000c0: c71f 5fbd d291 63bd f1b2 abbd b789 cdbd
000000d0: d625 d5bd 5df2 aebd c714 a0bc 5203 40bd
000000e0: 2f07 c83d 87fd 66bd dcc5 49bd 12ad 903d
000000f0: 2aab 8dbd 95d9 edbc 49d8 84bd 2fa6 cf3d
00000100: 3422 6bba 0f9c 3a3d 70d6 b23d 6853 023d
00000110: 0bd3 f2bc f5aa 16bb 8d02 983d 31ec 513d
00000120: 335f c2bc c794 e63c 642d ec3c 9564 d13d
00000130: 23ca 43bd 48cc 513c 3dcb d8bd 9888 2e3c
00000140: 5428 f4bd e849 b93d dfe5 c1bd c602 debd
00000150: 09b0 d93d 9a64 40bd 15b9 f8bd 0916 1fbd
00000160: 8cce 6f3d f2df 8c3d 0625 83bd 3f89 1e3d
00000170: ee3a a33c 6cdc 88bc 8bec c6bc ed93 523d
00000180: f774 7fbb 6018 d73c 6ad5 9abd bf4b b7bd
00000190: 3c7a c1bd 8cc6 9f3b 4b72 c5bd 801d 9cbd
000001a0: 0464 b0bd 0cb7 ecbc c7e6 a1bc a616 293d
000001b0: 1174 ea3d 2124 6d3d bd74 62bd bcc1 6a3d
000001c0: 6ccb a63c 10be 3d3c ffc1 443d c6e6 bd3d
000001d0: 15ad 973d 36a4 003d b59a afbc 8afb c2bd
000001e0: 5730 10bd 29ee afbd 0cef 1dbd 6ee1 6c3d
000001f0: 3790 71bd f83e 043c 2c86 47bd d83a e5bd
00000200: ca10 8639 b6f5 cabc ba05 abbd 0764 e7bd
00000210: edcd 5a3d a6b9 bc3d 925d 843d 97f0 263d
00000220: fab5 50bd 9bb7 a93c f2e7 c73c 6d08 133d
00000230: b1e7 833c 57fa 793d eb3f 5b3b 91b4 b3bd
00000240: 597a ddbd 8567 533d 5318 e33d dea4 bbbd
00000250: b82c ddbc 09c3 683d c048 cfbd 3ecd 743c
00000260: c1bb 1dbd 0568 cdbc adb5 cf3d 201c 893b
00000270: 1d35 893d c9de 6dbc b390 0f3e a453 323d
00000280: fc58 82bc 5c8c 613d 164e 2a3d 0d8d d03d
00000290: 94d3 b5bc 7e4c 783d 7978 223c 9efb 013d
000002a0: aacd e8bd c4bf 02bc 00df 86bd 6482 1f3d
000002b0: 1612 863d 77d7 c63d be2d c8bd 6649 ec3c
000002c0: c539 6c3d 2eba f8bd 8f48 c03d a6b0 ad3d
000002d0: ae2b 87bd f878 b53d 3233 a23c f53b ed3c
000002e0: c0be b9bd 0227 443d f08d 65be 8bcf 67bb
000002f0: 78d2 a1bd 12ef 683d 20ba f1bb 2743 973d
00000300: 0c92 dbbd f94a acbd cf43 8fbd 5ae6 533d
00000310: 80ab 9f3b a832 613c dcaa 0f3d ff2e ff3d
00000320: 3577 c13d 11a3 0f3b 9bcb cfbd 8b4e 87bd
00000330: dc23 38bd 23b5 cf3d b047 0f3d 83ac 9f3c
00000340: b710 57bd efb4 0b3e 528f 16be 4c1d 8abb
00000350: 4e84 94bd a1da 913e 700e 01be dc74 1b3e
00000360: 93e0 0cbd f603 90bd f702 183d 3043 f5bd
00000370: 6f40 2c3d 7667 923d e0d0 bf3c c634 c3bd
00000380: 53fc 503c e1cd 73bd 631f 873d ab92 5d3d
00000390: 7dce 9dbd e145 783d 15aa 0dbd 4ce1 a73d
000003a0: bcb0 56bd 2f02 0cbe 5e6b be3d 4a3b 063d
000003b0: a020 bc3c 801d 8dbd 3672 1f3d 9f3a 913c
000003c0: bbce c1bb 4738 59bd 4f78 debd 7ece 663d
000003d0: 8a7c 8bbd af0d e4bd 684b dbbd 2f9a 86bd
000003e0: 97c4 833d 2ecf 593d 029a 473d a2df 0dbd
000003f0: b0d6 e0bc 263f 8dbd f467 1d3c cd13 86bd
0.115722515 0.04925115 0.08100961 0.016658638 0.042924903 -0.04142903 0.077409714 0.055665955
-0.107951984 -0.1065875 -0.07026621 0.040677894 0.003005828 -0.011192252 0.08816196 0.04715381
0.07587729 0.08824877 0.11227942 -0.0081692245 -0.06667347 -0.08507576 0.11583878 -0.08820488
0.03235639 -0.0755911 -0.11453889 0.07869364 -0.050617456 -0.07391318 0.02407508 -0.03276279
-0.033120446 0.039759614 0.040569346 0.027686916 0.102209 0.022182139 -0.012451478 0.014102232
0.01795157 -0.055387944 0.07163709 0.116962746 0.1098101 0.03551022 0.11077348 -0.048519116
-0.054473665 -0.055558987 -0.0838374 -0.10036033 -0.10407607 -0.08542321 -0.019541157 -0.046878166
0.09766995 -0.056394126 -0.04926096 0.070642605 -0.069174126 -0.029034415 -0.064865656 0.10139119
-0.0008969635 0.045558985 0.08732307 0.031817824 -0.029641649 -0.0022990082 0.074223615 0.05125064
-0.023727035 0.028147114 0.028830238 0.102242626 -0.047800194 0.012805052 -0.105856396 0.010652684
-0.119217545 0.090472996 -0.094676726 -0.10840373 0.10629279 -0.04697094 -0.121446766 -0.038839374
0.058546588 0.06878652 -0.06403546 0.038705107 0.01992556 -0.016706668 -0.024282714 0.051410604
-0.0038979629 0.02625674 -0.07560237 -0.08949994 -0.094471425 0.0048759636 -0.0964094 -0.07622814
-0.086128265 -0.028895877 -0.019763364 0.041281365 0.11447919 0.057895783 -0.05528711 0.057313666
0.020360671 0.011580959 0.04803657 0.09272532 0.0740606 0.031406604 -0.021436075 -0.095206335
-0.03520235 -0.08590347 -0.03855805 0.057832174 -0.058975425 0.008071654 -0.04871194 -0.11192864
0.0002557098 -0.024775367 -0.08350702 -0.112983756 0.053419042 0.09215097 0.064631596 0.040756788
-0.050954796 0.020717433 0.024402592 0.035896707 0.01610169 0.06102976 0.0033454846 -0.08774675
-0.108143516 0.051612396 0.11088624 -0.09162305 -0.026998863 0.056826625 -0.10121298 0.014941512
-0.038509134 -0.025074014 0.10142074 0.004184261 0.06699584 -0.014518448 0.14020042 0.043536797
-0.015911572 0.055065498 0.041578375 0.10183153 -0.022195615 0.060619824 0.009916418 0.0317341
-0.11367352 -0.007980291 -0.065855026 0.03894271 0.06546418 0.097090654 -0.0977435 0.028843593
0.05767228 -0.12144886 0.093888395 0.08480959 -0.06600128 0.088609636 0.019799802 0.028959254
-0.09069586 0.047888763 -0.22417426 -0.0035371508 -0.07901472 0.05686862 -0.007376924 0.07385855
-0.107212156 -0.084127374 -0.06995355 0.051733352 0.0048727393 0.013744988 0.035075054 0.12460136
0.09446565 0.0021917264 -0.101462565 -0.06606778 -0.044956073 0.10141971 0.034980476 0.01949144
-0.052506175 0.1364324 -0.1470311 -0.0042149182 -0.072517976 0.28487113 -0.12603164 0.15181297
-0.03439386 -0.070320055 0.037112202 -0.119757056 0.042053636 0.0714864 0.023415029 -0.0953155
0.012755471 -0.059522513 0.065977834 0.05409495 -0.077054 0.060613517 -0.03458603 0.08197269
-0.05241464 -0.13672708 0.092978224 0.032771386 0.022964776 -0.06890392 0.03892728 0.017728148
-0.005914537 -0.053032186 -0.10862791 0.05634927 -0.06810863 -0.111354224 -0.10707742 -0.06572377
0.06433981 0.053176098 0.048730858 -0.0346371 -0.027446121 -0.0689681 0.009607304 -0.065467454

decoder.4.bias f4 [8]
00000000: 648b 8fbb edab da3a c658 cbbd 58d8 9c3d
00000010: 6bd9 efbd 9427 b5bd 4548 e03d 826d aa3d
-0.0043806303 0.0016683318 -0.099290416 0.07658452 -0.11711391 -0.088454396 0.10951284 0.08321668

decoder.6.weight f4 [8, 1, 3, 3]
00000000: 7953 1e3d 43c2 603d e1c3 c2bd ebb7 663e
00000010: cdd3 793e ab50 1e3e 1123 873e 3c45 a2be
00000020: 3081 61be aa39 6c3e 729e 033e 8034 533e
00000030: a507 cebe 79eb 683e 39ad 0c3e 5b52 afbe
00000040: f13b 2f3e 3c01 d13c 2468 d7bd 2481 153e
00000050: 67a9 8a3e a4b9 98be b81d 7ebe 1b99 6b3e
00000060: 3d8c be3d ec26 a6bd 9576 e3bd e160 703e
00000070: 8771 a6be ca2b b3bd 5855 9d3a 2f57 3b3e
00000080: 9545 5ebc c522 4d3e 91e4 b33d d987 88bc
00000090: 3ad6 a7bd c070 60be 672f 553e c497 153e
000000a0: be8a b0be 3cd7 debd fa0f 4bbe 2c90 a7be
000000b0: b529 063e 68bd 753e fd10 7cbe 1b0c 7fbd
000000c0: d8f8 02be 6716 8e3e e7cf 32be be03 603e
000000d0: 0310 0dbe 6385 513e 315b 2d3e 8a31 883e
000000e0: e8b6 47be 0fe1 ac3d 1604 3e3d 8366 cfbd
000000f0: 33d4 523e 9942 143e 27dc 0f3e 2374 de3d
00000100: a206 483e b122 79be 4faf 5dbe 24d6 6c3e
00000110: bf4a 04be a70c 1c3e 55ec cd3a e69e c0be
0.038653824 0.054872762 -0.09510017 0.22531097 0.24397202 0.1546046 0.2639394 -0.31693447
-0.22021937 0.23068872 0.12853411 0.20625496 -0.40240207 0.22746076 0.13737954 -0.3424252
0.1711271 0.025513284 -0.1051791 0.14600044 0.2708237 -0.29829133 -0.24816024 0.23007624
0.09304092 -0.081128925 -0.11106602 0.23474456 -0.3250849 -0.087485865 0.0012003584 0.18294977
-0.013566394 0.20032795 0.0878383 -0.01666634 -0.08195157 -0.2191801 0.20818864 0.14608675
-0.34480852 -0.108808964 -0.19830313 -0.32727182 0.13101847 0.23998034 -0.24615856 -0.062267404
-0.12790239 0.27751467 -0.17462121 0.21876428 -0.13775639 0.20461039 0.16929318 0.26600295
-0.19503367 0.08441364 0.046390615 -0.101269744 0.2058876 0.1447853 0.14048825 0.10861995
0.1953378 -0.2432964 -0.21648906 0.23128563 -0.12919138 0.15239201 0.0015710691 -0.3762123
