assignments/4/cnn_autoencoder.pth (torch, 855878 bytes, 15 tensors)

encoder.0.weight f4 [8, 1, 3, 3]
000000 54 a5 89 3e fe 17 81 be cd d6 52 3e 90 e2 cd 3e
       0.26883948 -0.25213617 0.20589752 0.40211916
000010 2f 88 39 3d 9f de a3 be 5e 72 2f 3e da d1 a0 be
       0.04529589 -0.32005784 0.17133471 -0.31410104
000020 22 ea fe 3c 98 82 ce bd cf 3f 4d 3e 50 af 45 be
       0.031117503 -0.100835025 0.20043872 -0.19305158
000030 62 27 72 3e ce a7 2b be 54 12 5a be aa 05 eb be
       0.23647836 -0.16763231 -0.21296054 -0.4590276
000040 ad 09 9f be 04 90 df be 3e d7 a0 be 25 7a bb bd
       -0.3106207 -0.43664563 -0.31414217 -0.091541566
000050 be 1b af bc 4d d4 98 3d ad bb 87 3e b4 87 f1 3e
       -0.021375533 0.07462368 0.26510373 0.47173846
000060 fc 5d bd bd ec 9c 9d 3d 0b 50 e4 bd 26 13 40 bb
       -0.09246442 0.07695946 -0.111480795 -0.0029308288
000070 0c cf 65 be 7c e9 cb 3c 35 46 5b bd 63 dd cd be
       -0.22442263 0.024891607 -0.05353375 -0.40207967
000080 dd 27 c7 be 0c 2d d5 be 29 ad bb 3d 3c 7c 88 be
       -0.388976 -0.4163593 0.09163887 -0.26657283
000090 d6 a0 61 be 09 8c d4 3e 9c b8 24 3e b4 d4 3c 3e
       -0.2203401 0.41513088 0.16086048 0.18440515
0000a0 b5 7c f4 3e a0 c6 6a 3c 4c e1 a1 3d 91 3d 46 bd
       0.47751394 0.014329582 0.079043 -0.048398558
0000b0 47 f2 e3 be 3b 57 97 be c0 a1 df be 6e e5 e1 be
       -0.4452078 -0.2955874 -0.43678093 -0.44120353
0000c0 b1 3b 2f 3e 36 6f 66 bd ae 3f d3 bd 18 17 ab bc
       0.17112614 -0.056258403 -0.1031488 -0.020885035
0000d0 e8 fd 3d be 56 e4 9c be 68 80 68 be 96 69 d1 bd
       -0.18553889 -0.30642956 -0.22705233 -0.10225217
0000e0 23 2c 36 bd d2 57 9c be 11 ed 64 be ec cc 31 3e
       -0.044475686 -0.30535752 -0.22356059 0.17363328
0000f0 90 16 fd 3d 59 a4 61 3e a2 9e d6 bd 67 01 9a 3e
       0.12357819 0.2203535 -0.104794756 0.30079195
000100 da ab 26 3d 93 ac 2c 3d 07 9d 1b be 52 15 4d be
       0.040691234 0.042156767 -0.1519662 -0.20027664
000110 fa e9 ac be 27 d4 c2 3e 0d b7 f2 bb 4a 45 8f 3d
       -0.3377226 0.38052484 -0.0074070753 0.06995638

encoder.0.bias f4 [8]
000000 c1 e5 46 3d a6 43 10 3e 02 95 d8 3d 3b a6 5b be
       0.048558954 0.14088306 0.10575296 -0.2145013
000010 3f d8 a4 3d c2 d7 a5 3e fc 5a 0d be 5f 14 8e 3e
       0.08049058 0.32391173 -0.13804239 0.27749917

encoder.2.weight f4 [16, 8, 3, 3]
000000 11 af 85 3c d7 13 1f 3e 32 91 30 3d d5 e9 07 bd
       0.01631883 0.15534912 0.04310722 -0.033181984
000010 5e 8f 89 bd c4 14 8c bd 61 5a d5 bd 86 5e 24 3e
       -0.06716798 -0.06839898 -0.10417629 0.16051683
000020 ec fe 1b 3e 2d 8a 67 3d 58 ee d1 3d 71 ab 06 3d
       0.15233964 0.05652826 0.102505386 0.032878343
000030 b3 d2 c3 3c d5 48 ad bd 00 2f 8c bc ed 7e 0e 3e
       0.02390418 -0.08461157 -0.017112255 0.13915606
000040 50 20 13 3e e6 44 35 3e 37 3b 17 3e 38 c6 b0 3c
       0.14367795 0.17702064 0.14768682 0.021578893
000050 9f cf e0 3d 08 53 85 bd 8e f0 ba bb e6 8a 99 3c
       0.109771006 -0.065099776 -0.005704946 0.01874299
000060 04 bd 3d 3d 74 27 05 3e 94 6e ad 3d c0 6d 09 3c
       0.046322837 0.13003331 0.08468357 0.008387983
000070 cb 58 aa bd 91 84 90 bd bb ff 28 bd f3 0f 15 bd
       -0.08317717 -0.07056535 -0.04125951 -0.036392163
000080 c3 09 9c bd 2b ef 15 bd 9d 3d 57 bd ae ef aa 3d
       -0.076190494 -0.03660504 -0.052548993 0.083464965
000090 e8 cf a0 3d cd c9 e9 3d a7 da 81 3e 6c 13 dc 3d
       0.07852155 0.114154436 0.2536213 0.10745892
0000a0 17 d5 8d bc 2f fb 79 bc c2 01 14 3e ab ad f3 3d
       -0.017313523 -0.015257641 0.14453796 0.11898359
0000b0 76 31 50 3e f2 27 de 3d 1b d7 bc bb 1a 3e a3 bc
       0.20331368 0.10847463 -0.0057629473 -0.019927073
0000c0 ea 71 61 3d 92 9f d4 3d da 6b bd 3c 0b 61 5c 3d
       0.055040278 0.10381998 0.023122717 0.053803485
0000d0 4c b0 83 bd 07 1e a3 bd 88 2c db 3b 41 d8 a0 bd
       -0.0643011 -0.07964712 0.006688658 -0.07853747
0000e0 2b 32 0c be 8e 53 bf bc 33 42 fa 3d a0 3f ec 3d
       -0.13691013 -0.023355272 0.12219658 0.11535573
0000f0 fd 14 ad bd e6 7b 3f bd d8 b3 3d bd 8a 70 38 3d
       -0.08451269 -0.046749018 -0.04631409 0.0450292
000100 02 b8 cd bc 23 a0 ae 3d fe 70 2b bc b4 e9 8e bb
       -0.025112156 0.085266374 -0.010463951 -0.0043613557
000110 d4 1a 63 3e f6 96 9c bd d6 46 4c 3d d2 b7 22 3d
       0.22178203 -0.07645981 0.049872242 0.039726086
000120 14 70 d2 3b c4 0d fa 3c 19 eb 9b 3d e7 6c 63 3d
       0.006422052 0.030524142 0.07613201 0.05552378
000130 9e b0 74 3d 7a ff 7a 3e 6f 5a 06 3e 3c 09 25 3d
       0.059738748 0.24511519 0.13120435 0.04029201
000140 16 1c 1c bc f7 d2 f6 3d c3 43 3e bd 26 0d 28 bd
       -0.009528181 0.12051957 -0.04645134 -0.041028164
000150 23 1b 44 3e 00 81 a7 3d 12 b8 09 3e ed 0c ab bd
       0.19150977 0.08178902 0.13449124 -0.08352075
000160 ee 86 c3 bd 19 5d 05 bd 54 0d 02 be b3 64 d4 3d
       -0.0954722 -0.032559488 -0.12700397 0.10370769
000170 8c 90 79 bc 06 cf 54 bb 90 03 92 3e d9 4e 13 3e
       -0.015232217 -0.0032472028 0.28518343 0.14385547
000180 55 85 b9 3d d6 ef 02 3e 16 3d f4 3d 0c 28 ea bc
       0.09058634 0.12786803 0.11925714 -0.028583549
000190 36 98 22 bd a4 aa bf 3d 0c 5f 4a bd 32 9f 11 be
       -0.03969594 0.09358719 -0.04940705 -0.14220884
0001a0 7e a7 d9 bc f3 79 0b 3c 33 69 1b be 24 df b4 3d
       -0.026569124 0.008512962 -0.15176849 0.08831623
0001b0 bf 45 83 bc 88 bd eb 3d ff 45 5c bc 9a 01 6f 3e
       -0.016024468 0.115107596 -0.013444423 0.23340455
0001c0 bc 9d 7c 3e a6 68 5b 3c 25 dd 21 3c fd b8 53 bd
       0.24669546 0.013391649 0.009879385 -0.05169009
0001d0 b2 0a 56 3c 4f 2d d9 3d ed 48 20 3e bd c7 53 3d
       0.013064073 0.10604345 0.15652819 0.051704157
0001e0 d4 0f 04 3e ae 3e 04 bc cc 3e a4 3d 3b 0f c5 3d
       0.12896663 -0.008071585 0.0801979 0.096220456
0001f0 89 41 2d bd b8 22 67 3d d4 51 9d bd 6c db 41 3d
       -0.042298827 0.056429595 -0.07681623 0.047328398
000200 e5 dc bf bb b5 7e ba 3b 04 97 28 bd c2 b8 30 be
       -0.00585519 0.005691374 -0.041159645 -0.1725798
000210 af 43 b4 bd cb 95 bc 3c ea f6 6a bd 71 64 e5 3d
       -0.08801972 0.023020646 -0.05736438 0.11200798
000220 4c df 2f be b9 2f 45 bb f4 df 42 bc b6 1e 99 bd
       -0.17175025 -0.003008826 -0.011894215 -0.07476561
000230 be 9c 17 be 4c fc bc 3d 17 65 65 be 3e da aa 3d
       -0.14805886 0.09227809 -0.22401844 0.08342408
000240 ea 9b a4 bd d2 1d 70 3e 2a d2 0a bd c2 30 9d bc
       -0.08037551 0.23448876 -0.033891834 -0.019188289
000250 c3 5e 07 be 06 44 14 3e e8 cc c1 bd b0 b7 84 3b
       -0.13219742 0.14479074 -0.09462911 0.0040502176
000260 c0 43 8b 3c f3 18 ed 3d 81 c1 c5 3d 7a 1b ff 3d
       0.01700008 0.11577024 0.096560486 0.124564126
000270 d8 17 c5 3d 1a 57 82 3c 7e 38 c5 3d bb 1d bf 3d
       0.096236885 0.015910674 0.09629916 0.093318425
000280 6b 34 ce 3d 10 b6 85 3a 8c b5 ac bd 70 9b 0e bd
       0.10068592 0.0010201354 -0.08433065 -0.034816206
000290 99 87 58 bd a4 61 53 3e 61 10 c9 3e b7 cd 97 3e
       -0.05286369 0.20642716 0.3927031 0.29649135
0002a0 98 34 81 3d 89 fd ca 3d 12 6c 87 3d 09 0b 0f 3d
       0.063088596 0.09911639 0.0661241 0.034922633
0002b0 14 08 98 3d d4 e8 81 bb 20 cd 5e b9 93 45 a1 bb
       0.07423416 -0.003964523 -0.00021247985 -0.004921624
0002c0 0d 21 8c bc 38 33 d1 3d 7b 2c bf bd bc 25 5b 3d
       -0.017105604 0.10214847 -0.09334656 0.053502783
0002d0 c0 8d 59 3c 91 ae d4 3d 1d b2 78 3d 51 d7 98 3e
       0.013278425 0.103848584 0.060716737 0.29851773
0002e0 e8 20 cc 3d c4 5f 2f 3e 28 3c 2d 3e d1 6a 01 3e
       0.09967214 0.17126375 0.16917479 0.12638403
0002f0 8a bf 88 3e 2e f1 56 bd 7f 40 8c 3b ce 13 74 bd
       0.26708633 -0.0524761 0.0042801495 -0.0595892
000300 f4 61 f4 3d 72 7e c0 3d 25 ec 28 3e 40 66 3b bd
       0.119327456 0.093991175 0.16496332 -0.04575181
000310 b3 75 62 3c c2 c7 d7 3b 2c c9 11 3e c0 4e 97 bd
       0.013822007 0.0065850923 0.14236897 -0.07388067
000320 88 b5 b8 3d a5 9d e6 bc aa 1b e6 3d 96 e2 98 bd
       0.09018999 -0.028151343 0.11235745 -0.07465093
000330 54 a4 99 bb 48 22 15 be a8 79 c7 bd b9 e8 23 3d
       -0.004688779 -0.14563859 -0.09740001 0.040016863
000340 07 9a e0 3d f6 e8 62 bd 08 71 01 bd c0 48 10 be
       0.109668784 -0.05539795 -0.031601936 -0.14090252
000350 7e f4 a7 bd 18 68 72 3d e9 aa a2 bd f6 27 fb bd
       -0.0820093 0.059181303 -0.07942755 -0.12263481
000360 fb 77 67 3c b9 fa f7 3d 65 05 64 bd f2 0c 75 3d
       0.014127727 0.121083684 -0.055669207 0.0598268
000370 66 32 32 3b bf ab 0f 3d 56 4f 3a 3e ea 24 d5 bd
       0.0027190684 0.0350759 0.18194327 -0.104074314
000380 e9 62 43 bc c7 d9 d0 bd 6e 93 8f bd ad bf 8d bb
       -0.0119254375 -0.10197788 -0.07010542 -0.004325828
000390 a8 81 bb 3d fb 21 1f be a7 85 94 bc 85 c9 c8 bc
       0.09155589 -0.15540306 -0.018130137 -0.024510155
0003a0 c0 31 0c bd d9 5b e0 bd e2 93 52 be 3f 8e 64 3e
       -0.034227133 -0.109550186 -0.20564225 0.22319888
0003b0 1e d0 a7 bd 33 9d 02 3e 75 53 20 3e b2 6f b8 3e
       -0.08193992 0.12755279 0.15656836 0.36022717
0003c0 1b bb 04 3e ed 33 f8 3d 76 e4 10 3e 59 c3 b0 bd
       0.12962 0.12119279 0.14149651 -0.086310096
0003d0 dc bb 0a be c6 11 08 bd 69 e7 42 bd 22 38 3f bd
       -0.13548225 -0.033220075 -0.04758397 -0.04668439
0003e0 b7 52 86 3d 14 46 2e bd 87 14 6b bb 93 58 28 3d
       0.06558745 -0.0425473 -0.003587039 0.041100096
0003f0 12 6c a4 3c c5 46 14 3d 28 c0 2d 3c f8 b9 c0 3d
       0.020071063 0.036200304 0.010604896 0.09410471

encoder.2.bias f4 [16]
000000 12 73 0e bc 71 8c 33 bc 4e 5c fc bc 52 a8 5a 3d
       -0.008694427 -0.010958777 -0.030805733 0.05338318
000010 18 62 4f bd 50 80 5f bd c3 af 7b 3d aa 18 11 3e
       -0.05063066 -0.054565728 0.061446916 0.14169565
000020 63 73 3b 3d 71 d8 a2 bd b0 da 88 bb 10 9b 14 3e
       0.04576434 -0.07951439 -0.00417646 0.14512277
000030 2d d4 6c bd 32 e6 70 bd fe 1e c9 3d 6b bb 5b bd
       -0.057819534 -0.05881328 0.098203644 -0.053645533

encoder.4.weight f4 [32, 16, 3, 3]
000000 f0 b2 55 3d 9f 2a 66 3d d3 2f ec 3b f8 fd b1 bd
       0.0521726 0.05619299 0.0072078495 -0.08691019
000010 e3 41 96 3d 3b 9e a8 3d 3b f9 d3 bd 2d fc 5b 3d
       0.07336786 0.08233305 -0.10350271 0.05370729
000020 17 c6 be bd 43 a1 08 3d 5f e7 34 3e 5e 15 32 3d
       -0.093151264 0.033356916 0.17666386 0.04347741
000030 85 4f eb 3c a1 15 b0 3d 38 d2 0e 3c a7 63 ec 3d
       0.028724441 0.085978754 0.008717112 0.11542445
000040 df 1c e4 3d 24 47 06 3b 36 14 98 39 ea 45 32 bc
       0.11138319 0.002048918 0.00029006758 -0.010880927
000050 ec 9c c4 bd c8 54 38 3d 3b 71 93 bd 22 1f 0c be
       -0.09600243 0.04500273 -0.071993314 -0.13683751
000060 a5 03 1c be a1 90 d6 3c e1 3c c6 bd 98 91 84 3d
       -0.15235765 0.026192011 -0.096795805 0.06473082
000070 ad 2f b0 3d d5 8d b1 3e e2 c8 b9 bc cd 75 ab 3d
       0.086028434 0.34678522 -0.022678796 0.08372078
000080 04 fc 88 3e c2 c8 6c 3d e2 00 2d 3e 2d 7b 29 3e
       0.26754773 0.057808645 0.16894868 0.16550894
000090 fd 4d 2f bd ba f3 fd bc b4 ee 1b 3e 3e 5b 09 be
       -0.042798985 -0.031000007 0.15227777 -0.13413712
0000a0 2d 23 65 3d 27 09 0e 3e fc 6d 39 3c 03 af 4f 3d
       0.05594175 0.13870679 0.011317726 0.050704014
0000b0 58 8b c2 3d 52 72 ab 3a b1 30 8d 3d 28 c2 76 bc
       0.09499234 0.0013080335 0.06894053 -0.015060939
0000c0 71 5f 4a 3d 44 56 1a 3d 8d 7d d7 3c a8 35 14 bd
       0.049407426 0.037679926 0.026304984 -0.036183983
0000d0 d1 a8 94 3c ad 33 96 bc c9 50 28 3d 80 57 2e bd
       0.018146904 -0.018335188 0.041092668 -0.042563915
0000e0 21 07 8c 3c 77 85 86 bc 0c 79 9e bd 21 f6 ae 3d
       0.017093243 -0.016421063 -0.077379316 0.08543039
0000f0 05 7d d4 bc 85 34 7c bd da 39 40 3d 0c 2d 36 3d
       -0.02593852 -0.061573524 0.04693017 0.044476554
000100 a1 e9 66 bd 8d 11 37 bd 71 bd b2 3d dc 4b 31 bc
       -0.05637515 -0.044694472 0.08727539 -0.010821309
000110 13 36 16 be 48 53 0d 3e 37 8a 60 bd ed 61 68 3d
       -0.14669065 0.138013 -0.054819312 0.056734014
000120 38 49 bc 3d f1 9e 0c 3e 5e 64 32 bd 2e 2c 23 3d
       0.09193653 0.13732506 -0.04355275 0.039837055
000130 f9 9c 28 3e b6 75 f8 bc 01 4d 0f bc 68 34 0b 3e
       0.1646613 -0.030329566 -0.0087463865 0.1359421
000140 80 7c ac 3d 48 b5 dd 3d e0 07 7c 3d 75 12 cf 3c
       0.08422184 0.10825592 0.061530948 0.025277356
000150 0b a3 4c 3d e2 bb 4b 3d bb f5 ec 3c 39 a3 82 bd
       0.049960177 0.049739726 0.028925767 -0.063787885
000160 db cf 7a 3d 55 2d a2 bc e6 63 a6 bd 7b 50 41 bb
       0.061233383 -0.019797007 -0.08124523 -0.0029497433
000170 ec cb 08 be af 09 cb 3c 2a 62 79 bd 66 68 be bd
       -0.1335904 0.024784891 -0.060884632 -0.09297256
000180 80 f0 b1 3d 1b 88 74 bd 84 57 a4 3d 1e 6c 76 bd
       0.0868845 -0.059700113 0.08024505 -0.060161702
000190 e6 11 26 3d a2 87 db bb 2e 72 cf 3d 23 2c 80 3d
       0.040544413 -0.0066995183 0.101292 0.062584184
0001a0 e1 2f 31 3d ce b4 7a bd 9d 1e 46 3d cb e8 01 bd
       0.04325855 -0.061207585 0.04836904 -0.03171615
0001b0 eb 8a a3 bd dd 10 56 bd 21 81 8c bd c3 f6 e6 bb
       -0.07985481 -0.052262176 -0.06860567 -0.0070484593
0001c0 95 f8 c8 bd 14 2d a9 3d e6 c3 b7 bc cc 1c 80 bd
       -0.09813038 0.08260551 -0.022432279 -0.062554926
0001d0 4b 34 36 3b 10 0f 68 bc 78 89 b1 3d 00 a4 bd bc
       0.0027802165 -0.014163747 0.08668798 -0.02314949
0001e0 92 09 bf 3d 15 d3 12 3e 7f bd 17 bc dd 46 5d 3d
       0.09327997 0.14338334 -0.009261488 0.05402266
0001f0 70 ec 17 bc 5b e9 2c bd d9 b9 30 3d d5 12 eb 3d
       -0.00927268 -0.042214733 0.043145988 0.11478201
000200 0e e8 f1 3d d2 e4 1e 3e 34 7f 77 3e 90 65 2e bc
       0.11811839 0.15516976 0.24169618 -0.010644332
000210 ed 4e 05 3e 77 b2 40 3e 94 2d 70 3d 47 c0 aa 3b
       0.13018389 0.18818079 0.058637217 0.0052109095
000220 25 77 02 3d d2 5a fa 3c 40 06 19 bd 49 ff 88 3d
       0.031851906 0.030560885 -0.037359476 0.06689317
000230 9d a2 33 bc 72 62 b0 3d fd 46 b0 3c ed b6 a1 bd
       -0.010964063 0.08612527 0.021518225 -0.078962184
000240 8c 06 cf bd be 25 fc 3d e5 66 ef 3d 0a 24 dd bc
       -0.101086706 0.12311886 0.116895474 -0.026994724
000250 3b 41 38 3e 1f 27 a4 3b 9c 7d 45 3d 75 ea 16 3e
       0.17993633 0.0050095464 0.048215494 0.14737876
000260 49 64 bc 3d 3f 92 73 bd 6d c9 06 bd 60 9b a1 bd
       0.091988154 -0.059465643 -0.03290694 -0.078909636
000270 68 be 52 bd 46 11 8e be 16 31 93 be ae 7a 36 bd
       -0.051451117 -0.27747554 -0.28748387 -0.04455059
000280 53 9a 05 be d2 26 90 be 33 be b7 bb b3 a4 cc bd
       -0.13047151 -0.28154618 -0.0056073903 -0.099923514
000290 2a 28 08 3d 1e f6 2f bd c4 86 4d bd d9 4c 01 bd
       0.03324143 -0.042959325 -0.05017735 -0.03156743
0002a0 c2 e7 b9 bc 71 a3 b0 3d 3c e5 a5 3d a0 32 7a bd
       -0.022693519 0.08624924 0.081003636 -0.061083436
0002b0 d3 2e 8a 3d 19 ea 02 3e 80 23 29 bd b2 0f 31 3d
       0.06747212 0.12784614 -0.04129362 0.04322786
0002c0 28 09 db 3c 58 0d 99 3c 46 33 a2 3d 31 2f 8c bd
       0.026737764 0.01868312 0.07919936 -0.068449385
0002d0 86 df 21 3c f6 0c 10 bd 05 e0 fd bd a4 42 95 bd
       0.009879952 -0.03516861 -0.12396244 -0.07288101
0002e0 7d 07 99 bd 76 76 81 be cb f0 8f 3d 1a dd da bd
       -0.074721314 -0.2528569 0.070283495 -0.10686703
0002f0 30 6b ae bd 58 84 8d 3c 52 70 53 bd c0 a4 c0 bd
       -0.08516538 0.01727502 -0.05162079 -0.094064236
000300 1e da c1 3d 7b 0a ad 3d 55 b1 f8 3d de 5a 5c 3d
       0.09465431 0.084492646 0.121431984 0.053797595
000310 4a 8f f0 bc af 30 2a 3e c0 05 25 3d 6d 93 ba 3c
       -0.0293652 0.16620134 0.040288687 0.022775376
000320 63 42 54 bd 3b 85 d8 3d 54 0b 62 3c e3 3b cc 3c
       -0.051821124 0.10572287 0.013796646 0.0249309
000330 05 db df bc 9b 14 58 bb c0 59 98 3d 70 40 0e 3e
       -0.027326116 -0.0032971266 0.074389935 0.13891768
000340 69 67 e8 bd 3f 4b 3d bd 1a 2d d2 3d 60 ba fb bd
       -0.11347849 -0.04621434 0.10262509 -0.122914076
000350 36 bf 48 3d 05 08 9e bd 50 50 d3 bd e5 8b 84 3d
       0.049010478 -0.07716373 -0.10318053 0.06471995
000360 1d 4f 87 bd d7 0d 52 3d 1b 51 da 3d f6 23 46 3d
       -0.066068865 0.05128273 0.10660001 0.04837414
000370 f9 58 9e 3c 62 53 31 3d 96 37 b2 3d d0 0c 8c 3d
       0.019329535 0.04329241 0.087020084 0.06838381
000380 0d 3f 60 bd 89 35 c5 3c f5 97 cb 3d 95 70 1b 3e
       -0.05474763 0.02407338 0.09941093 0.15179665
000390 18 d3 db bb 84 87 43 bc 3b 41 f9 3d 2d 01 b4 3d
       -0.006708514 -0.011934165 0.12170645 0.08789287
0003a0 70 ef 6f 3d 0b 73 09 3e 5b 85 e8 3c 08 7b ab bd
       0.058577955 0.13422792 0.028383901 -0.08373076
0003b0 c3 d9 fa bc 8e 5b c7 bc ff 9a 71 bd 4a 09 2b bc
       -0.030621415 -0.024335649 -0.058985706 -0.010439226
0003c0 4c 5c 75 bd 1a 13 aa 3c 7d 7b 21 3e 46 9a 95 bd
       -0.059902474 0.020761061 0.15769763 -0.07304816
0003d0 7d 89 97 3d bc 7f d1 3b 2d 0e 3c 3d 7f 6c 98 3d
       0.07399271 0.006393401 0.045911957 0.07442569
0003e0 13 45 e2 3d 93 c0 5b 3d e4 af 06 3e 5a 38 1d 3b
       0.11048331 0.05365045 0.13153034 0.0023989887
0003f0 41 c7 93 3d 4b 5d 3b bd 0b e4 a5 bd 5c d9 89 bc
       0.07215739 -0.045743268 -0.08100136 -0.016827278

encoder.4.bias f4 [32]
000000 92 12 c5 3d 70 af 32 3d 8c fc 31 bc 2e a4 63 3d
       0.09622683 0.04362434 -0.0108634345 0.055576496
000010 27 e2 7e 3d 56 6f be bc de cc 8f 3d 21 75 82 3c
       0.062227394 -0.023246448 0.07021497 0.015924992
000020 69 ee 1c 3d 4a 1e 44 3b 82 cf ad 3d 7f 38 3d bd
       0.038313303 0.002992528 0.084868446 -0.046196457
000030 a9 2d a4 3d 9e ae 5c 3d ce 5c 09 3c 2a df b6 3d
       0.080165215 0.053877465 0.008383943 0.08929284
000040 55 ed 1f bc 0d 14 db 3a fe 8c 47 bd 31 1c d3 3d
       -0.009761174 0.001671435 -0.048718445 0.103081115
000050 c1 74 d0 3d bb 1a d8 3c d0 e7 34 bd af 28 97 3d
       0.10178519 0.026379934 -0.044166386 0.07380807
000060 21 f0 47 bd 52 e3 44 bd 6b 5d 84 bd b4 d3 00 bd
       -0.04881299 -0.048068352 -0.064631306 -0.031451896
000070 ac 23 17 3d 24 6a bd 3c 29 e4 40 3d 75 68 22 3d
       0.036899254 0.0231219 0.04709259 0.0396504

encoder.6.weight f4 [64, 32, 7, 7]
000000 d1 ce 4e bc 3f 28 1f 3d 29 64 3e 3d c2 3f df 3d
       -0.012622551 0.03885674 0.04648224 0.10900833
000010 b1 35 1a 3d 73 46 95 3c 65 2d 21 bd 7a d2 ff bb
       0.03764886 0.01822207 -0.039349932 -0.007807073
000020 ce 13 99 3c f5 fc 01 3d 35 00 f0 3c ba 49 49 bd
       0.018686201 0.03173538 0.029296974 -0.049142577
000030 d0 8e cd 3d e1 34 80 3c 92 dc 01 3d 00 64 31 bd
       0.10037005 0.015650215 0.031704493 -0.043308258
000040 25 cc a7 3c ab 77 e3 bc 61 7c 28 bc 0c 2a b5 3d
       0.020483086 -0.027767023 -0.0102835605 0.088459104
000050 53 f5 e8 3c 25 7b 1c bd 1a 79 03 3d 7d d8 80 3c
       0.028437292 -0.038203377 0.032097913 0.01572823
000060 62 31 a7 bd ce 34 11 3d b6 d7 03 3d 01 b9 89 3b
       -0.08163716 0.03545075 0.03218814 0.0042029624
000070 75 0d 94 3c 49 40 77 3d 39 d6 ee 3c 4f 0e 30 bd
       0.018072823 0.06036404 0.029154884 -0.042982396
000080 e8 b7 50 3d 65 d9 12 bd 8b d9 ad bc 36 a3 99 3c
       0.050956637 -0.035851855 -0.021221897 0.018754583
000090 a9 8c c0 3d 93 90 9f bc bd 9e b3 3b 21 51 2b 3d
       0.09401829 -0.019478118 0.0054815696 0.041825417
0000a0 12 60 c5 3a f8 80 ae 3c 0a ed c4 3c f8 5e d8 3c
       0.0015058538 0.021301731 0.02403881 0.026412472
0000b0 47 27 0a 3b df 1c 1d 3d 6f 8a 27 3d b7 df f6 bb
       0.002108054 0.03835761 0.040903505 -0.007533993
0000c0 cf dd ef 3c 6c fa ce bc 8c 1b 0e b7 8b b0 0e bd
       0.029280571 -0.025265895 -8.470273e-06 -0.034836333
0000d0 87 c1 03 3c e8 9b 4a bc e6 3f 78 3b 36 16 d6 3c
       0.008041746 -0.0123662725 0.0037879883 0.026133638
0000e0 69 0e 83 3d ef c2 10 3d e8 25 31 bc cb ee bf bc
       0.06399233 0.035342153 -0.01081226 -0.023429295
0000f0 67 85 a1 bc 7b 1e 69 bc e0 bd 12 3d f6 d6 8b 3d
       -0.019716932 -0.0142284585 0.03582561 0.0682811
000100 51 c0 41 bb e8 bc c8 bc db 90 2b 3d 2f b2 ee bc
       -0.0029564092 -0.02450414 0.04188619 -0.029137699
000110 9c 17 17 3c d1 68 09 ba eb a9 04 bc 91 2a 15 bd
       0.0092219375 -0.0005241754 -0.008097152 -0.036417548
000120 5d 8b 55 bc ae 98 9f ba 3c 36 f6 3a 00 37 65 3d
       -0.013033715 -0.0012176239 0.0018784474 0.055960655
000130 19 e3 5f bc df 9f 3a bd df f7 88 bc 5f 6f 33 3b
       -0.013664984 -0.04556262 -0.016719757 0.0027379615
000140 20 fb b5 bc b6 cb dd 3c 77 92 96 3d fe 77 84 3a
       -0.022214472 0.027074676 0.07352155 0.0010106561
000150 7d aa 80 3c b8 fd be bc d5 19 e2 3b e3 db 28 bd
       0.015706295 -0.023314342 0.006900052 -0.041225325
000160 04 13 31 3d 96 93 2c 3d 61 00 97 3c d8 36 e4 3d
       0.043231025 0.042132936 0.018432798 0.11143273
000170 f9 60 fe bc ef 4e 3f bd 18 17 73 3a 97 74 1d 3d
       -0.0310521 -0.046706136 0.00092731556 0.038441267
000180 df 1f 60 bd 68 f2 98 3b b7 38 60 bd 65 52 55 bd
       -0.054717895 0.004667569 -0.054741587 -0.05208053
000190 a1 d4 83 3d e5 30 32 3d a8 31 cc 3b 38 b1 88 bd
       0.0643704 0.04350366 0.0062315054 -0.06674427
0001a0 f4 9e a8 bd ab 6c 52 bd 87 5b b4 bd 0e db 53 bc
       -0.08233443 -0.051373165 -0.0880652 -0.012930645
0001b0 a8 3e 1c 3c dd d4 25 3d 14 08 55 bb 72 63 9a 3d
       0.009536423 0.040486205 -0.0032506036 0.07538499
0001c0 16 dd c7 bc 54 0f 1f bd 01 ac e0 bc 66 e1 44 bc
       -0.024397414 -0.038832977 -0.027425768 -0.01201663
0001d0 b9 60 74 3d e7 f9 93 3c cf 67 20 3d 18 b0 03 bd
       0.059662554 0.018063499 0.0391615 -0.032150358
0001e0 d2 0e 23 3c d7 a8 39 bd 58 53 8f 3c b7 32 1e 3b
       0.009952264 -0.045327034 0.017495796 0.0024139115
0001f0 a0 93 dc 3c 39 85 9c 3c a4 81 4e bb 81 70 1d bd
       0.026925862 0.019106494 -0.0031510377 -0.03843737
000200 da bd 51 bd ad 5d 4c 3b d7 01 f2 3b fc 81 87 bb
       -0.051206447 0.0031183765 0.007385473 -0.0041353684
000210 fa 91 30 3d 53 27 0c 3d 15 27 0c bd 7c 98 dd bc
       0.043107964 0.03421719 -0.03421696 -0.02705025
000220 c2 36 5a 3c dc 6e 31 3d fd d8 91 3d 9f 98 87 3d
       0.013318719 0.043318614 0.07121465 0.06620907
000230 c0 b8 3b bc 46 e6 07 3c 1d 98 4a bc 63 6e 9f 3c
       -0.011457622 0.008294648 -0.012365368 0.019461816
000240 d9 e6 0e 3d f5 48 6b 3d fe 4f af 3c cf 7c e4 3a
       0.034888122 0.057442624 0.021400448 0.0017432215
000250 f1 60 8b bc 9f 1e 9a bc 6d bb 9b 3b 61 16 81 3a
       -0.017013999 -0.01881343 0.0047525675 0.0009848588
000260 38 0b 98 3c 09 7d 62 3b 80 21 54 3c 1a 26 b2 bc
       0.018560037 0.003455939 0.01294744 -0.021746684
000270 b8 3f 5d bc 83 ab 16 3c 4f 04 f8 3b 73 c7 1e 3d
       -0.013503961 0.009196165 0.007568873 0.03876443
000280 f2 05 b4 3c cd ad 65 3c 25 e2 ab 3b ba 25 bb bc
       0.021975491 0.014018488 0.0052454644 -0.022845138
000290 c2 64 ef 39 24 96 48 3c 7d d9 14 3c 78 6e 4c 3c
       0.00045660703 0.012242828 0.009085056 0.01247751
0002a0 81 64 00 3d 75 43 68 bb 55 2c 67 bc ce 2a aa 3b
       0.031345848 -0.0035440598 -0.014109691 0.005193091
0002b0 0a d5 92 3c 99 85 1c bd 13 fc 21 bd 6f eb c9 3c
       0.01792385 -0.038213346 -0.039547037 0.024648396
0002c0 a6 6c 0a 3c 2c a9 4a bc 3a f8 10 bd 29 29 02 bd
       0.008448755 -0.012369435 -0.035392977 -0.031777535
0002d0 37 29 82 bd fe a4 b3 bc 73 98 86 bc 44 63 e4 bc
       -0.06355517 -0.02192926 -0.016430115 -0.027879365
0002e0 c9 f7 fa bc 8d 2e 91 bc da fe 98 bd 3b df 57 bd
       -0.030635731 -0.017722392 -0.07470484 -0.052703124
0002f0 e4 d1 cb 3c 92 59 b5 bc 41 f5 87 bc 95 7b c3 3b
       0.024880357 -0.022137437 -0.016596438 0.00596566
000300 1b 45 23 bd 3b 1d 99 bd 35 76 15 bd 54 7e 4c ba
       -0.039860826 -0.074762784 -0.036489684 -0.0007800807
000310 c6 47 05 be e8 cd 9d 3c 7c 84 3b 3d a6 41 bd 3d
       -0.1301566 0.019263223 0.045780644 0.09241037
000320 65 c6 be 3c 04 14 26 bd 42 3d 85 bd 7d 3d b1 bd
       0.023287961 -0.040546432 -0.065058246 -0.08654306
000330 85 35 c1 bd e4 57 e7 3c 50 16 9f 3c d1 c4 c5 3c
       -0.09434036 0.028240152 0.01941982 0.024141701
000340 14 ac de 3c db 46 07 3d 0d 9b e5 bd 16 d3 e0 bd
       0.027181663 0.033026557 -0.11211214 -0.109777614
000350 4e 2b 4f ba 30 6d 52 3c 17 63 f4 39 5e 47 71 3c
       -0.0007902876 0.012843415 0.00046613134 0.014726488
000360 83 c2 ac 3d e0 ce bb bd 0e 26 c1 3b 28 e1 f8 bc
       0.08435538 -0.09170318 0.005894429 -0.0303808
000370 ca 8b f2 bb 99 15 b9 3b 78 36 ec 3c 2e d1 45 3d
       -0.007401918 0.0056483266 0.028834566 0.048295192
000380 b1 c0 4e bc 03 36 ec 3c 34 f9 bd 3c a1 66 97 3a
       -0.012619183 0.028834349 0.023190118 0.0011550972
000390 44 6f d8 3c da 80 99 3c 19 5d b9 3c 8f 73 ed 3b
       0.026420243 0.018738199 0.0226274 0.0072464417
0003a0 75 8d 65 bc 3f 4f a4 bc 60 eb 2b 3c f3 c4 82 3d
       -0.014010777 -0.020057319 0.0104931295 0.06385221
0003b0 0c 7b 66 3d b5 c8 03 3c cc 31 06 3d 59 da 5c 3c
       0.05626969 0.008043458 0.032762334 0.0134797925
0003c0 bd f8 a8 3c 10 4e 93 3d 74 7c 22 3d 7b 2a 59 3d
       0.02062642 0.071926236 0.03966947 0.05301903
0003d0 80 fa a9 3c 53 39 b7 3c f6 a7 ce bc c5 a2 77 bc
       0.02074933 0.022366202 -0.025226574 -0.015114491
0003e0 3c 40 df bc 57 52 48 3c ba 8d 0a 3d 8c f8 e8 3c
       -0.027252309 0.012226663 0.033826567 0.028438829
0003f0 1b 67 05 3d 1a 0f 14 ba 2b 62 12 bd dd b9 97 bc
       0.032569032 -0.0005648002 -0.03573815 -0.018521244

encoder.6.bias f4 [64]
000000 92 fb a3 3b 29 6d b6 3c 86 8d 30 3b dc 17 35 ba
       0.0050043548 0.022268848 0.0026939823 -0.00069081574
000010 63 4d 0c bd 3a 34 63 bc e3 07 bd 3c ec c5 d2 bb
       -0.03425349 -0.013867432 0.02307505 -0.0064322855
000020 d1 6c 5c bc 3a b2 25 3b 17 ba 0c 3b 5a 38 05 3c
       -0.013453678 0.0025283233 0.0021473223 0.008131111
000030 ef 57 54 3c c2 38 83 bc 69 37 b3 bc 66 79 5a bc
       0.012960418 -0.016018275 -0.021877008 -0.013334608
000040 a8 20 0a 3d 70 8a 07 3d 67 8b 8c bc 4e ec ef bb
       0.03372255 0.03309101 -0.017156316 -0.007321871
000050 9a 9b e0 3b 7e 31 ef 3b ff 4d 6f bc f3 a3 d3 bb
       0.0068544867 0.007299601 -0.014605998 -0.0064587533
000060 e5 ea 51 bc 97 d8 ae bc ca 53 00 bd cd 90 9f 3c
       -0.012812351 -0.021343512 -0.031329907 0.019478226
000070 69 f7 aa 3b c2 f1 d6 3b 34 80 86 bb 6f e1 9c 3c
       0.005217482 0.0065595815 -0.0041046385 0.019150464
000080 8a 51 9f bc 06 45 10 bb d3 f0 8b 3c 53 28 da bc
       -0.01944806 -0.0022013797 0.017082607 -0.026630556
000090 e2 f6 4a 3c 16 19 e8 bc 47 f4 46 bc 02 f0 df 3c
       0.012387963 -0.028332274 -0.012143201 0.027336124
0000a0 f0 4a c6 3c 51 91 8c bc 93 13 a2 bc 4b e8 6a 3b
       0.024205655 -0.017159136 -0.019784724 0.0035844024
0000b0 60 65 1d 3d a1 32 64 bc 04 d2 e1 bb 98 91 57 bd
       0.038426757 -0.0139280865 -0.006891491 -0.052629083
0000c0 d6 ca e2 ba 66 dc 15 bc 90 e7 c0 3c e7 fe c7 3b
       -0.0017302881 -0.009146785 0.023547918 0.006103385
0000d0 c6 f7 08 3d 53 9c 99 3b dd a0 d1 bc fc c1 76 bc
       0.03343942 0.0046878248 -0.0255894 -0.015060898
0000e0 f9 8f 8d 3b e2 f2 ae 3c 12 a3 42 bc 7c 13 a0 3c
       0.0043201414 0.02135605 -0.011879699 0.01954054
0000f0 3f e5 72 3c 3b b0 a8 3a d3 03 bc bc 52 71 b3 bc
       0.014825164 0.0012869904 -0.022951042 -0.021904621

decoder.0.weight f4 [64, 32, 7, 7]
000000 f2 fd 8b 3a 52 7e 01 3d f9 c4 c2 bc 61 db 49 3c
       0.001068054 0.03161461 -0.023775565 0.01232037
000010 58 d1 fa bb a8 ea 19 bb 38 59 e2 bc 71 a0 41 bc
       -0.0076543503 -0.0023485813 -0.027630433 -0.011818037
000020 03 c2 4e bc 2d 1e 66 3c 20 18 d5 bc f8 e6 11 3c
       -0.012619498 0.01404528 -0.02601248 0.008905165
000030 3a 9f 04 3c fc c5 03 bc 33 62 17 bc 71 a0 99 bb
       0.008094603 -0.008042809 -0.009239721 -0.0046883156
000040 7e b9 ce bc ca 18 e7 bb 7e bf 8b 3c 96 41 1b bc
       -0.025234934 -0.0070525156 0.017059084 -0.009476086
000050 78 32 51 3c a4 a5 d3 bc ac 50 c6 ba 4a 2c 0e bd
       0.01276838 -0.02583582 -0.0015130243 -0.034710206
000060 7f 3a 6a bc 2a dd db bc 78 49 af bc 4f a9 20 bb
       -0.014296173 -0.026838858 -0.021397337 -0.0024514978
000070 a2 09 eb 3c c5 7f 20 bd 77 65 6b bd 39 da 20 bc
       0.028691117 -0.03918435 -0.05746981 -0.009817653
000080 64 6a c0 bc 39 69 90 bb 6b 42 d8 3b 35 96 c5 bc
       -0.023488231 -0.004407075 0.0065997145 -0.024119476
000090 47 df 13 bd 41 cd 1d bc 6b 47 f2 bc 6e 74 74 3c
       -0.036101606 -0.009631456 -0.02957507 0.014920337
0000a0 44 18 08 3d 6a e7 cd 3c 24 96 89 bc d7 5b 3e 3c
       0.033226267 0.02513476 -0.016795225 0.011618576
0000b0 cc e5 c5 bb a4 c9 81 bc c6 4c cb bc 93 55 89 bb
       -0.006039357 -0.01584322 -0.024816882 -0.0041911094
0000c0 6a d0 b3 3c 95 a3 2c 3a 5b 57 93 3b 37 8f 28 bc
       0.021949966 0.0006585655 0.0044964976 -0.010288051
0000d0 d3 e9 cd bc 89 6e 19 bc 51 3d e2 bc af 76 22 3c
       -0.02513591 -0.009364733 -0.027617129 0.009915992
0000e0 d6 e7 ab 3c 47 28 d2 bc 7d 93 67 bc a8 de ad 3c
       0.020984571 -0.025653971 -0.014134285 0.021224335
0000f0 cf 34 c8 3b df 67 93 3b 48 37 94 bc ae d0 27 3c
       0.006109811 0.0044984664 -0.018092766 0.010242624
000100 f0 03 43 bc ed 8a 56 3c 20 30 28 3c 30 78 72 3b
       -0.011902794 0.013094646 0.01026538 0.0036997907
000110 16 7c d4 3c 20 09 bc bc ac d9 d6 3c 63 1b a4 bc
       0.025938075 -0.02295357 0.02622684 -0.02003259
000120 5a 05 49 ba ff 2d df bb a9 f2 71 bc b9 b0 09 bd
       -0.0007668339 -0.006810903 -0.014767327 -0.0336158
000130 c5 2c ab 3b 50 db cc 3c ff eb 8c 3c a2 e9 06 bb
       0.005223843 0.02500692 0.017202375 -0.0020586033
000140 2d d0 30 3c 9e 1d 09 3d d1 4f b0 3c e0 27 b1 bc
       0.0107918205 0.03347551 0.021522434 -0.02162546
000150 3c c1 31 bc 0e e1 99 ba d5 36 e5 3c 64 cc 00 ba
       -0.010849293 -0.0011740045 0.027980248 -0.0004913269
000160 4b 0d 5a 3b 99 53 ec bb 22 3c 40 3c c8 dd 01 3d
       0.0033272083 -0.007212114 0.011733087 0.031705648
000170 98 30 14 3c e1 2c e8 3c 4f 80 ed bb 76 71 07 bc
       0.009044789 0.028341712 -0.0072479616 -0.008266797
000180 83 36 49 3c 47 fa c3 3c 05 a2 99 3c f2 63 86 3a
       0.012281063 0.023923052 0.018754015 0.0010253175
000190 16 36 73 bc c8 78 b9 3c 7b a3 76 bb dd e0 8b 3c
       -0.014844438 0.0226406 -0.0037634063 0.017074997
0001a0 39 48 af 3b c9 d9 83 3c f4 0a c0 3a 52 cf dd bc
       0.005349186 0.016095059 0.0014651702 -0.027076397
0001b0 10 c7 1d 3d 5b 3a de bc 0a a3 2c 3d 8c 38 10 bb
       0.03851992 -0.027127435 0.042147674 -0.002200636
0001c0 43 45 44 3d 8e db ff 3c 19 c9 ce 3c 71 c6 8b bb
       0.047917616 0.031232622 0.025242375 -0.0042655994
0001d0 8d 8b f0 bc e3 65 c7 3c 7a 0b 2a bc e8 f7 0a bd
       -0.029363418 0.024340576 -0.010378713 -0.033927828
0001e0 3f 24 ed bc 0c 51 d4 3c 61 5d 26 bc cb 4d 34 bc
       -0.028947948 0.025917552 -0.010154099 -0.011004875
0001f0 8c 63 46 36 5b d8 4e 3c 27 25 45 bb 28 7b de bc
       2.9562243e-06 0.012624825 -0.003008196 -0.027158335
000200 b8 dd 30 3c fc b9 55 bc 25 4b 5d bb 25 86 c9 3c
       0.010795049 -0.01304483 -0.0033766713 0.024600098
000210 0b ee 11 3c f9 d1 2b bc 70 e6 a6 bc 94 ac 12 3d
       0.0089068515 -0.010487073 -0.020373553 0.035809115
000220 06 6f ce bc b7 a5 c7 3c e2 ec 9b 3b 90 e6 57 3b
       -0.025199424 0.024371011 0.0047584632 0.0032943822
000230 cf 6b d3 bc 25 0c 81 3c e2 77 af 3c 36 e9 e3 bc
       -0.025808243 0.015752861 0.02141947 -0.027821165
000240 63 01 02 3d fe d0 8e bc a7 81 47 bc 81 5d 5c 3a
       0.031739604 -0.01743364 -0.012176908 0.0008406267
000250 8d e4 ca ba 42 57 57 3c 63 38 5c bc 91 2c 88 3a
       -0.001547949 0.0131433625 -0.013441178 0.0010389258
000260 1e 0c bf 3c 70 6d 24 bc ab e2 de bc 83 b6 83 3c
       0.023321208 -0.010035858 -0.027207693 0.01607824
000270 68 9d ca 3c be 51 3f 3c ef 82 91 3b 32 af 70 3c
       0.02473326 0.011677204 0.0044406573 0.014690207
000280 08 3e c8 bc c2 ac 1f 3c c1 f3 30 3c 2a 8b 3d bc
       -0.024443641 0.0097457785 0.010800303 -0.011568824
000290 26 30 9d 3c 89 38 d3 3a 3b 45 c9 3c 69 2c 60 3b
       0.019187998 0.0016114871 0.024569144 0.0034206158
0002a0 a5 60 0e bd 03 4f f5 3c a3 7b f0 3c e0 27 07 bd
       -0.034760136 0.029944902 0.02935583 -0.032997012
0002b0 15 7a b0 3c 58 ee db 3c 9b cf cc 3b c5 ef d9 bc
       0.021542588 0.02684705 0.0062503344 -0.026603589
0002c0 63 7b 90 bb 85 39 9e 3c 7e bf 12 bb 4c c0 c7 3b
       -0.00440924 0.019314537 -0.002239197 0.0060959216
0002d0 f2 a0 c4 3b 2b d1 a3 bc 04 0c 16 3d 4d 49 63 3c
       0.0060006315 -0.0199972 0.036632553 0.013872457
0002e0 a2 77 87 bc dc be a1 bc 8b 39 6f 3c 8d 0a 10 3b
       -0.016536538 -0.01974433 0.014601122 0.0021978945
0002f0 fa d0 24 bd 1b 13 c1 3c 56 60 45 b9 35 2c cb bc
       -0.040238358 0.02356868 -0.00018823272 -0.024801353
000300 30 1a 3f 3d 99 6a 45 3c bf 7e a0 3c 91 94 c6 ba
       0.046655834 0.012049341 0.019591687 -0.0015150477
000310 74 c5 65 bd 6d 43 eb 3c ed 2f 9f 3c 21 c4 cf 3c
       -0.05609651 0.028718675 0.019432032 0.025362076
000320 c3 01 df 3b 3f e3 95 3c bd 69 75 bc 0c 79 f6 bc
       0.00680563 0.018296836 -0.014978823 -0.030087017
000330 29 76 36 3b 7c cf 4a bb be 6c c2 bc 6b 17 b1 3b
       0.0027841425 -0.0030946424 -0.023733493 0.005404403
000340 f1 75 30 3d 1a 80 be 3c 87 2d b2 bc 22 1c cc 3c
       0.043081228 0.023254443 -0.021750225 0.024915759
000350 02 c7 ca bc fa ce 8a bc dd e8 63 3c 1a e7 af 3c
       -0.024753097 -0.016944397 0.013910499 0.021472502
000360 58 e0 cb bb 03 4e 96 3c 14 c9 77 3c e5 8c 5b 3c
       -0.006221812 0.018347746 0.015123624 0.013400291
000370 84 43 09 bd 84 2a 72 3c ce 9d 80 3c 01 e1 d4 bc
       -0.033511654 0.014780644 0.015700247 -0.025986196
000380 50 34 ff bb cb bd 72 3b e8 41 b5 3c d8 bc 3e 3c
       -0.0077882186 0.0037039395 0.022126153 0.011641704
000390 c4 85 f1 bb e6 66 b0 bc 9a 57 9a bb 6e ad 51 bb
       -0.0073706824 -0.02153344 -0.00471015 -0.0031994241
0003a0 d7 32 1a 3c 3b c3 fa bb f9 c3 8c bc 3c 74 25 3a
       0.009411535 -0.007652668 -0.01718329 0.0006311571
0003b0 3e 27 87 bc 0c 77 42 3c 68 96 cd 3c 53 d5 95 3c
       -0.016498204 0.011869203 0.025096133 0.018290197
0003c0 d5 07 0a 3c f2 6b 7f bc 03 e8 8a 3c be 0f 79 3c
       0.008424719 -0.015589701 0.016956335 0.015201507
0003d0 2c 5d 97 3b 12 6e e8 3c f7 0a 91 3c 20 ee 88 bb
       0.0046192612 0.028372798 0.017705424 -0.0041787773
0003e0 a6 69 a8 3c 0f 94 26 bc 69 48 5d bc d3 a5 12 3c
       0.02055819 -0.010167136 -0.013506033 0.008950668
0003f0 95 63 cc 3a 06 76 be bb d2 89 05 bd 82 7e 11 bb
       0.0015593643 -0.0058124093 -0.03260214 -0.0022200649

decoder.0.bias f4 [32]
000000 fd 1b 96 bd f3 f5 9e 3c df f4 c5 3c fe 31 30 3d
       -0.07329557 0.019404387 0.024164615 0.043016426
000010 03 d1 23 3d 31 81 81 bd c8 d9 44 bc 80 7e 6e bc
       0.03999425 -0.063234694 -0.012014814 -0.014556527
000020 11 d8 c9 bc 07 55 b9 3d 63 ac 1e 3d 8d be 4f 3c
       -0.024639161 0.09049421 0.03873862 0.012679708
000030 c7 fa 7e 3b 5f d0 ab 39 e4 5a dc 3c 7c 88 18 bc
       0.00389068 0.0003277091 0.026898809 -0.009309884
000040 85 47 ac bc cd 88 e6 3c c5 de ee 3b 37 4a 72 3d
       -0.021030197 0.028141404 0.00728974 0.059152808
000050 cf a9 87 bc 0b 1b 86 bd 5f 83 62 3d ce af 5b ba
       -0.016560463 -0.06548127 0.055301066 -0.0008380384
000060 7b 1e 22 3d bf 40 8a 3c 83 a9 2f 3d 5e 44 06 ba
       0.03957985 0.016876576 0.04288627 -0.0005121882
000070 d1 f7 e9 3b 8e de ab 3c fc d8 3b 3c 42 11 e4 3c
       0.0071401377 0.020980146 0.011465307 0.02784026

decoder.2.weight f4 [32, 16, 3, 3]
000000 40 8c e1 3c 97 e6 1a bd cb 99 01 3d 00 7d be bd
       0.027532697 -0.037817564 0.03164081 -0.093011856
000010 81 21 16 bc 58 5d 4b bc df 82 0b bd 62 94 20 bd
       -0.009163261 -0.012412392 -0.034060355 -0.03920401
000020 27 a5 44 bd 72 71 8e bc 64 eb 69 bc f1 7e 34 bb
       -0.048009064 -0.01738808 -0.014277313 -0.0027541483
000030 95 c1 35 bd f5 2f 7b bd 05 96 5e 3d 9f 15 c5 bc
       -0.044374067 -0.061325032 0.05434229 -0.024058161
000040 8e 5e ec bc 55 50 c4 3c 1b c1 77 3d a4 89 51 3c
       -0.028853681 0.023964087 0.060486894 0.012789164
000050 61 96 99 ba 98 f5 22 bd d9 ea 8c bc a3 b2 67 3d
       -0.001171779 -0.039784998 -0.017201828 0.056566846
000060 16 e2 88 3d 0c 32 ff 3c d7 2c 7c 3d a8 30 dc 3c
       0.066837475 0.031151794 0.0615662 0.02687867
000070 10 56 a3 ba 31 fc b2 bd f8 96 d3 39 1f fd 70 bd
       -0.0012461562 -0.08739508 0.00040357537 -0.058835145
000080 a1 d0 9c bd 93 d6 5e 3b 63 a0 85 bd 0b 46 40 bd
       -0.0765698 0.0034002408 -0.06524732 -0.0469418
000090 db 3e e1 3c b7 e9 22 3d 06 07 32 3d 99 a0 97 3c
       0.027495792 0.03977367 0.04346373 0.018509196
0000a0 7b cf 18 3d a5 8c 8f 3d 79 87 a5 3d 35 6d c2 3d
       0.037307244 0.07009248 0.0808248 0.09493486
0000b0 a8 0c 99 3d d7 77 44 3d af 22 90 bd e8 d1 29 bd
       0.07473117 0.04796585 -0.07037865 -0.041459948
0000c0 8c 8a 37 bd 64 b5 dd bd d9 22 92 bd 23 a4 f4 3c
       -0.044809863 -0.10825613 -0.07135553 0.029863423
0000d0 d8 e3 1b bd 17 c7 9a bd 30 1b 4c 3c de 64 9a 3d
       -0.038059086 -0.075575046 0.012457654 0.0753877
0000e0 c6 c6 dc bc 7d ea c1 3c eb 1d a7 3d 29 73 be 3d
       -0.026950251 0.023671383 0.08160003 0.09299309
0000f0 5e 8f c5 3c 25 f6 77 3d 2b eb c5 3d ad 5e 93 bc
       0.024116214 0.060537476 0.09663995 -0.01798948
000100 e6 7a c8 bb 5b ea 83 3b d1 dc 31 3d e7 c2 6e bc
       -0.0061181663 0.00402574 0.043423478 -0.0145728355
000110 fd 05 3d bd d1 91 ea bc 0b 69 68 3c b3 45 1b 3c
       -0.04614829 -0.028633984 0.0141852 0.009477067
000120 b8 6d 1a 3d b2 1f 2f bd b9 3b 4c bd 60 bc 86 3b
       0.037702292 -0.042754836 -0.049861643 0.0041118115
000130 f1 ae 97 3d 92 09 6d 3d c5 60 b4 3d 52 3f 91 3d
       0.07406414 0.057870455 0.0880752 0.070921555
000140 e8 72 73 3b 09 4a 6a 3c ef 31 26 bd ae 29 78 bb
       0.0037147347 0.014299878 -0.040574964 -0.003786664
000150 4e 95 2f 3c fb 7a 8a 3d 11 0b e5 3d bb 2c 99 3d
       0.010716749 0.06761738 0.111837514 0.07479235
000160 e0 92 08 3d 27 fc a9 3d a0 65 52 bd 28 88 b7 bd
       0.033343196 0.08300047 -0.05136645 -0.089615166
000170 86 6a 5e 3c 73 c9 dd bc ee 3a 1f bb 61 af 15 bd
       0.013575202 -0.027073598 -0.00242966 -0.036544207
000180 8d 1b 62 bd 90 41 9a bd 5b ac be 3d bf 02 ae bd
       -0.055202056 -0.07532036 0.09310218 -0.084966175
000190 31 a0 ae 3d 6e d4 db bc 1c 64 5d bb 6d 55 8a 3d
       0.08526648 -0.026834693 -0.0033781594 0.06754575
0001a0 d6 25 83 bd 76 18 01 bd b2 fe d0 3d 5f 43 02 bd
       -0.06403701 -0.03151747 0.10204829 -0.03180253
0001b0 59 78 c3 bb 4c 6e d7 3c 43 d0 c0 bc 38 ec 88 3d
       -0.0059652743 0.02629771 -0.023536807 0.0668568
0001c0 4c ce 99 bd 20 c5 8d 3c fa 01 9e 3b 1c 7d 4c bd
       -0.07510051 0.01730591 0.004822013 -0.049924
0001d0 9d 54 aa bd 4b 3b 9b bd dd 62 fe 3c 96 ec 6d bc
       -0.0831692 -0.075796686 0.031053001 -0.0145217385
0001e0 c2 53 2e 3c ea f3 a3 3c 5e c2 0f bd e6 f0 28 3d
       0.010640087 0.020013768 -0.035097472 0.041245364
0001f0 86 e8 ee 3c 7b 64 6c bc d9 e2 99 bc 02 25 a5 bd
       0.02916361 -0.014428253 -0.018784927 -0.08063699
000200 96 36 fc bc 5f a1 fc 3c 61 a8 d5 bd 29 15 8e bd
       -0.030787747 0.030838666 -0.10432506 -0.0693763
000210 7a 67 1a bc 3a 91 15 bd ba 7e 86 bd 3b ad 78 bd
       -0.009424085 -0.036515452 -0.0656714 -0.06071208
000220 84 54 c8 3c 52 f1 35 bc 79 69 74 bd 0e a0 04 bc
       0.024454363 -0.0111048985 -0.0596709 -0.008094801
000230 ec 46 b8 bd e1 83 f5 3a 9b 7d a2 3b 98 bc 23 3d
       -0.08997902 0.001873132 0.004958821 0.03997478
000240 cf 6b 20 3c d0 75 59 3d cf 6e 8f 3b f1 b1 6e 3d
       0.009791329 0.05309087 0.004377223 0.058275167
000250 2c a6 1f bd 3f cb 9e bb cc 65 99 3d 7c 14 dd 39
       -0.038976833 -0.004846006 0.07490119 0.00042167667
000260 17 32 5a bd 93 bb 56 bd 5e 3b c1 3d e9 35 ef 3c
       -0.053270426 -0.05242498 0.094351515 0.029200511
000270 42 1f b0 bd a0 b8 c6 3c 7a 70 52 3d 51 4e 2f bd
       -0.08599712 0.024257958 0.051376797 -0.042799298
000280 c8 4f 9e bd a0 37 ba 3c 55 9d 0e 3d 8b 69 17 3e
       -0.07730061 0.022731602 0.034818012 0.14786355
000290 57 05 99 bc ba 5e 53 bd 65 ef e1 3c cf 27 31 3c
       -0.018679304 -0.05160401 0.027579973 0.010812714
0002a0 cc 9b aa bd 88 c4 81 3d bb 33 c0 3d 6f 71 ed 3d
       -0.08330497 0.063363135 0.09384867 0.11593901
0002b0 f5 cc 58 3d 51 e7 c3 3c e1 54 ad 3d 7c 0b 8d 3d
       0.052929837 0.023914011 0.08463455 0.06886956
0002c0 63 a1 f2 3b da b1 73 3d 73 27 61 3d be 9d 09 bd
       0.0074044927 0.059495784 0.054969262 -0.0335977
0002d0 79 5d 06 3d 72 06 7c bb 91 c8 2c bd cb e1 92 bd
       0.032803986 -0.003845599 -0.042183463 -0.07171973
0002e0 28 81 35 bd 2f 64 2b 3c 0e b0 8d bc 6b 4c 4e bc
       -0.044312626 0.010460897 -0.017295863 -0.012591462
0002f0 5f 85 0e bd f2 24 29 3b b2 35 7d 3d d7 ad 5d bd
       -0.03479516 0.0025809375 0.061818786 -0.054120865
000300 33 76 c6 bd c8 33 2e 3c 11 a2 31 3c 3d 4a 0d be
       -0.096905135 0.010632463 0.010841862 -0.13797851
000310 0a f0 05 be 62 bb 8a 3d 02 46 00 bd db be 99 3d
       -0.13079849 0.06774022 -0.031316765 0.07507106
000320 4c cf 26 bd 00 61 77 3d da 54 36 bd 3f 30 66 bd
       -0.040725037 0.06039524 -0.044514515 -0.056198355
000330 f8 6c c1 bb c0 64 6b 3d 62 fc 18 bd 19 a1 3d 3c
       -0.0059028827 0.05746913 -0.037350066 0.011574053
000340 9f 2a b4 bb 2b 86 65 bd 2a 1d be 3d cc b1 63 3d
       -0.005498245 -0.056036156 0.09282906 0.055589482
000350 18 fe 39 bd b0 6b 92 3d b6 3c 83 3c 1b 14 8d 3d
       -0.04540834 0.07149446 0.01602016 0.068886004
000360 c2 28 a0 bd 86 ea 8b bc 6a 8e e3 bc dd 66 69 3d
       -0.07820274 -0.017079603 -0.02777787 0.056982864
000370 56 1c e2 bc 64 a0 6b 3c 49 d7 00 bd 66 b3 c7 bd
       -0.027601402 0.014381502 -0.031455312 -0.097510144
000380 59 4c d8 3c 02 a5 13 3d fb 42 4f 3d c7 d1 08 bc
       0.026403593 0.036046036 0.050600987 -0.008350796
000390 0e ea 07 3b 5a ff 23 3d bf b2 8a bd 80 95 47 3b
       0.0020738873 0.040038444 -0.06772374 0.00304541
0003a0 d9 62 00 bd 80 a5 18 3d f1 db 0e 3d ba a9 1d 3d
       -0.03134427 0.037267208 0.03487772 0.038491942
0003b0 d1 21 57 3d 19 2e c8 3d bf b1 8d 3c 8f d6 0a be
       0.052522484 0.097744174 0.01729667 -0.1355841
0003c0 c2 06 57 3d 03 0a b5 3d ee 44 9b bd ee 09 c3 bc
       0.05249668 0.088398 -0.07581507 -0.023808446
0003d0 93 89 a0 3b e0 81 27 bc 27 d7 cd bb 01 54 ed bd
       0.0048992126 -0.010223836 -0.0062817517 -0.11588288
0003e0 32 7a 82 bd f7 1c 5c bd 0d e9 94 bd 68 5d 05 bd
       -0.06370963 -0.05373856 -0.072710134 -0.032559782
0003f0 c5 b6 5a bc 85 f6 64 3d 3b 36 19 3d 26 9d 03 3d
       -0.01334924 0.05589916 0.037405234 0.03213229

decoder.2.bias f4 [16]
000000 ce 5f fe bc 6f 80 45 bc f4 21 39 3d e2 75 38 3d
       -0.031051543 -0.012054547 0.045198396 0.045034297
000010 ab 44 07 be 89 5f fd 3c 2c 95 95 bd d4 f6 94 3d
       -0.13209789 0.030929344 -0.07303843 0.07273641
000020 4c 78 fe 3c 10 4e 8e bc 23 8c 4f bd 70 f9 6c bb
       0.031063221 -0.017371207 -0.050670754 -0.0036159419
000030 be aa 02 bd 3d b8 bb 3c 28 eb 10 3e d6 f4 34 3d
       -0.031901114 0.022915 0.14152205 0.044178806

decoder.4.weight f4 [16, 8, 3, 3]
000000 3b c5 9f bd 53 cb 69 bd 45 bc a7 bd 50 9f 2b bd
       -0.078012906 -0.05707867 -0.081902064 -0.04189998
000010 13 95 3a bd c4 bd a1 3d 49 b8 9a 3d 25 87 07 bd
       -0.045552325 0.07897523 0.07554681 -0.03308787
000020 a3 b8 83 bd 87 c6 b4 3c fe 8d 21 bd a4 1e a7 3d
       -0.06431701 0.022067321 -0.039442055 0.08160141
000030 9c f6 25 3d 12 f2 fc 3d 34 85 8f 3c 1d 59 68 bc
       0.04051839 0.12350859 0.01751957 -0.0141814025
000040 53 60 c3 3d 6b 79 05 3e 02 55 05 3d 5f c9 fd bd
       0.09539857 0.13034599 0.032551773 -0.12391924
000050 48 15 ec bc cf 53 41 bd db f1 d4 3d dc de 0f 3d
       -0.028818741 -0.047199067 0.10397693 0.035124645
000060 1d a1 92 bd 68 cf 9a bd 78 52 d4 bd d0 eb 28 bd
       -0.07159636 -0.07559091 -0.10367292 -0.041240513
000070 cb b7 27 bc 57 5f b0 3c eb 91 47 bd 2d c7 93 bd
       -0.010236691 0.021529837 -0.048723143 -0.07215724
000080 e9 d6 47 bd f2 91 06 be 85 c3 21 bd fa b0 aa 3c
       -0.04878894 -0.13141611 -0.039493103 0.020836342
000090 b9 95 19 be 12 42 46 bd e0 63 c4 3c 36 e0 1c bd
       -0.14998521 -0.048402853 0.023973405 -0.03829976
0000a0 fc a0 63 3d 56 b5 d1 bc 39 1f d5 bd f3 12 38 3e
       0.05557345 -0.025599163 -0.10406346 0.17975979
0000b0 44 b2 98 bb 8d ec d9 3c 62 13 10 bc f5 a6 6c 3c
       -0.004659923 0.026602054 -0.008793684 0.0144441025
0000c0 b8 24 33 3d 16 75 7a 3d 81 4b 0c 3e b4 9e fc 3d
       0.04373619 0.061146818 0.13700677 0.12334958
0000d0 c9 5a 1a bd b9 a9 d8 3c a8 82 56 bc 2a d8 19 bd
       -0.037684236 0.026448118 -0.013092674 -0.037559666
0000e0 7a c0 aa bd 48 a0 42 bc 22 50 b4 3b ee ee 17 bd
       -0.08337493 -0.011879034 0.0055027166 -0.037093095
0000f0 d6 79 1b 3d c1 e9 5c bd ee 8e 9f bc 14 a0 e1 bc
       0.03795799 -0.053933863 -0.019477334 -0.027542152
000100 85 4b ce 3d b6 23 6b bc f6 73 bf 3d f2 07 76 3d
       0.10072998 -0.014351776 0.0934829 0.06006617
000110 0a 79 e0 3c ae 80 c4 3c 46 9c a5 bc 5d 3d bf 3d
       0.027401466 0.02398714 -0.020216119 0.09337876
000120 a9 c8 5c 3d 61 c8 3f 3d 6e f0 e8 bd be 13 b4 3d
       0.053902302 0.046821956 -0.11373983 0.08792828
000130 16 f5 a2 3d 37 19 92 3d 66 a0 3e bb 95 45 01 3e
       0.07956903 0.071337156 -0.0029087304 0.126242
000140 e0 f8 98 bc 30 5f 1c 3d 4b e5 d7 3b 51 b7 74 bd
       -0.01867336 0.038176715 0.006588613 -0.059745137
000150 2c de 5f 3d f7 1a 03 3d f1 4b 99 3d ec e0 c1 3c
       0.05465524 0.032008138 0.07485188 0.023666821
000160 69 10 66 bd ab 5c 4e bd 68 86 3f 3c b0 71 9a bd
       -0.056167994 -0.050381344 0.01168976 -0.075412154
000170 35 f6 d6 bc 79 0d aa 3d 27 a0 c0 3b c3 f1 41 3d
       -0.026240448 0.08303351 0.0058784666 0.047349703
000180 8d 5f a3 3d a6 00 aa 3d a3 91 2a 3d fa 34 dc 3b
       0.07977209 0.08300905 0.041642796 0.0067201825
000190 1d d5 af 3d a1 f5 0b 3b b1 07 3b 3c d9 07 f6 bc
       0.0858557 0.0021356123 0.011415408 -0.030033039
0001a0 e4 19 59 3d 61 35 2d bd f2 d7 94 bd 8e 54 9e 3d
       0.053003207 -0.042287234 -0.07267751 0.07730971
0001b0 13 88 95 bd 67 83 b7 3d 02 41 ae bd e9 bf 49 bd
       -0.07301345 0.0896061 -0.08508493 -0.049255285
0001c0 de d4 5b bd 58 0b b0 bd 21 fe bf 3d ea 14 e7 3d
       -0.053669803 -0.08595914 0.09374643 0.11283286
0001d0 14 58 2d bd 50 9f 50 bc 40 ec 1d 3d 59 32 b4 3d
       -0.042320326 -0.012733296 0.038555384 0.087986656
0001e0 d6 dc 94 bc ca 89 c7 bd 15 75 a2 3d e6 7c d9 bc
       -0.018171709 -0.09743078 0.07932488 -0.026548814
0001f0 81 64 83 3d 8b 5c 68 bc ce eb e9 3c 0b 53 b4 bd
       0.06415654 -0.01418222 0.028554823 -0.08804902
000200 22 02 08 be 74 dc 9c 3c 24 67 a8 3d e4 7b dc 3c
       -0.13282064 0.019148089 0.082227975 0.026914544
000210 6c 0a 04 bd 1a e5 d2 bd d9 22 85 3c 04 a3 7e bd
       -0.0322365 -0.10297604 0.016251968 -0.062167183
000220 ad 87 87 3d 6e a0 c1 3c e2 1a 89 3d 90 bc 0f 3e
       0.06617675 0.02363607 0.066945806 0.14036775
000230 12 fb b8 3d dc 35 0a bd 5e fa 33 3d f3 ca 66 3d
       0.09032263 -0.03374277 0.04393994 0.05634589
000240 0f c3 e3 bd db 17 07 3d 4d 98 bb 3d 68 95 00 3d
       -0.11121189 0.032981735 0.091599084 0.031392485
000250 5c 15 02 3e 84 2e 0d 3d 0c b2 4c 3d 62 98 d6 3d
       0.1270346 0.03446819 0.049974486 0.104782835
000260 cd 46 32 3d f0 57 3d 3d 17 72 34 bb 4a 9e ba 3d
       0.043524552 0.04622644 -0.0027533823 0.091122225
000270 67 d5 84 3d 64 71 86 bd 28 12 74 3d 78 93 8e bd
       0.06486016 -0.06564596 0.059587628 -0.06961721
000280 1b 00 b4 bd fe 4e 81 3d fc d3 1c 3d 31 2b 0f 3d
       -0.087890826 0.06313895 0.0382881 0.0349533
000290 77 98 17 3d bd ae 13 3c 60 f7 c9 bd 8b c1 b9 3c
       0.037010636 0.009013829 -0.09861636 0.022675296
0002a0 1a 32 9c 3d 30 52 3d 3e ef 17 a6 3d 2d 0f c6 ba
       0.076267436 0.18488383 0.08110034 -0.0015110724
0002b0 a5 99 81 3d 6e e8 b9 3d 16 85 14 bc 69 4f 37 bd
       0.063281335 0.090775356 -0.009064933 -0.044753466
0002c0 44 da 0a be fa f8 9f 3d e4 3c 5e bd 79 c6 14 bc
       -0.13559824 0.078111604 -0.05425729 -0.009080523
0002d0 09 09 61 bd 1d 8e da bd 3c 4e 3c bd ee 4e 3b bc
       -0.054940257 -0.10671637 -0.045973048 -0.0114323925
0002e0 c8 f8 7a 3c c5 20 8f 3c a2 67 e1 bc 67 56 cb bd
       0.015318103 0.01747168 -0.027515236 -0.09928589
0002f0 03 5b fd bd 93 b1 22 bd a1 2e 39 3d 08 c1 bb 3c
       -0.12370875 -0.03972013 0.045210484 0.022919193
000300 45 f1 80 3c 1a 13 98 3d 21 33 bf 3d e1 07 c8 bd
       0.015740046 0.07425518 0.09335924 -0.09767128
000310 b1 d7 02 3d c0 b3 b4 bc 13 5d 52 3d e4 95 d2 3d
       0.03194398 -0.022058368 0.051358294 0.102824956
000320 22 5c 6d 3c 21 4a 0a bc 1f b0 d7 3c c9 57 12 bd
       0.014487298 -0.008440525 0.026329098 -0.03572825
000330 41 f8 02 3c 63 78 38 3d 08 ac 9a 3d e0 1c 39 3d
       0.007993759 0.045036685 0.075523436 0.045193553
000340 8f 7b 2c 3d 95 38 14 3b 7c 2e ee 3c ff 73 b5 3d
       0.042110022 0.0022616733 0.0290749 0.08860015
000350 c2 28 f0 3d 8c c4 9a 3c 13 89 c9 3d 9e df 88 ba
       0.11726524 0.018892549 0.09840598 -0.001044262
000360 52 45 97 3b c5 66 ca 3c 01 c8 ab 3c 7f a5 8f 3c
       0.004616418 0.024707207 0.020969393 0.01753497
000370 81 75 b0 3d c9 f5 e1 3d 98 9c 7c bd 63 c5 6f 3d
       0.08616162 0.11033208 -0.061672777 0.058537852
000380 3a 32 86 bd 57 79 a5 bd cc 5d 92 bd b6 8d 61 3b
       -0.06552549 -0.08079784 -0.071467966 0.0034416742
000390 1d e3 80 bd a0 87 c0 bc dd 40 c0 bd 22 2c 8a 3c
       -0.062933184 -0.023502171 -0.09387372 0.016866747
0003a0 5b dc a5 bd 9e cd 05 3b eb 10 92 3d 41 96 80 3d
       -0.0809867 0.0020416747 0.07132133 0.06278659
0003b0 8c c9 91 3d a6 ef 5a bc d7 67 e5 bd 53 ac e1 3c
       0.0711852 -0.013362801 -0.112014465 0.02754799
0003c0 1b 87 96 3c 84 14 fd bc 17 b7 94 3c cc 0c 61 3d
       0.01837497 -0.030893572 0.01815371 0.054943845
0003d0 ae 1b 20 be 19 5b d9 3d 7e db 8b 3d 96 4a e8 3c
       -0.15635559 0.106130786 0.06828974 0.028355878
0003e0 42 f3 1c 3d bc 59 eb 3c a4 c3 ad bd 1a 11 c1 bd
       0.038317926 0.028729312 -0.08484581 -0.0942709
0003f0 65 0e b2 3d 9f 0d da bd 1c 42 81 bc a0 92 2a 3d
       0.08694152 -0.10647129 -0.015778594 0.04164374

decoder.4.bias f4 [8]
000000 32 4e 06 3e 48 51 a4 bd 9d cc 09 bb 41 46 86 bd
       0.13115767 -0.08023316 -0.00210265 -0.065563686
000010 90 36 aa 3d 7d bc 89 bc 29 46 24 3d 63 7c 2a 3d
       0.08311188 -0.016813511 0.040105972 0.04162253
